{
  "format": "graph-model",
  "generatedBy": "2.7.0",
  "convertedBy": "TensorFlow.js Converter v4.22.0",
  "signature": {
    "inputs": {
      "input_1": {
        "name": "input_1:0",
        "dtype": "DT_FLOAT",
        "tensorShape": {
          "dim": [{ "size": "-1" }, { "size": "-1" }, { "size": "-1" }, { "size": "3" }]
        }
      }
    },
    "outputs": {
      "output_1": {
        "name": "Identity:0",
        "dtype": "DT_FLOAT",
        "tensorShape": { "dim": [{ "size": "-1" }, { "size": "1000" }] }
      }
    }
  },
  "modelTopology": {
    "node": [
      {
        "name": "StatefulPartitionedCall/efficientnetv2-s/blocks_39/se/Mean/reduction_indices",
        "op": "Const",
        "attr": {
          "value": {
            "tensor": { "dtype": "DT_INT32", "tensorShape": { "dim": [{ "size": "2" }] } }
          },
          "dtype": { "type": "DT_INT32" }
        }
      },
      {
        "name": "StatefulPartitionedCall/efficientnetv2-s/blocks_39/se/conv2d/Conv2D/ReadVariableOp",
        "op": "Const",
        "attr": {
          "value": {
            "tensor": {
              "dtype": "DT_FLOAT",
              "tensorShape": {
                "dim": [{ "size": "1" }, { "size": "1" }, { "size": "1536" }, { "size": "64" }]
              }
            }
          },
          "dtype": { "type": "DT_FLOAT" }
        }
      },
      {
        "name": "StatefulPartitionedCall/efficientnetv2-s/blocks_39/se/conv2d/BiasAdd/ReadVariableOp",
        "op": "Const",
        "attr": {
          "value": {
            "tensor": { "dtype": "DT_FLOAT", "tensorShape": { "dim": [{ "size": "64" }] } }
          },
          "dtype": { "type": "DT_FLOAT" }
        }
      },
      {
        "name": "StatefulPartitionedCall/efficientnetv2-s/blocks_39/se/conv2d_1/Conv2D/ReadVariableOp",
        "op": "Const",
        "attr": {
          "value": {
            "tensor": {
              "dtype": "DT_FLOAT",
              "tensorShape": {
                "dim": [{ "size": "1" }, { "size": "1" }, { "size": "64" }, { "size": "1536" }]
              }
            }
          },
          "dtype": { "type": "DT_FLOAT" }
        }
      },
      {
        "name": "StatefulPartitionedCall/efficientnetv2-s/blocks_39/se/conv2d_1/BiasAdd/ReadVariableOp",
        "op": "Const",
        "attr": {
          "value": {
            "tensor": { "dtype": "DT_FLOAT", "tensorShape": { "dim": [{ "size": "1536" }] } }
          },
          "dtype": { "type": "DT_FLOAT" }
        }
      },
      {
        "name": "StatefulPartitionedCall/efficientnetv2-s/blocks_38/se/Mean/reduction_indices",
        "op": "Const",
        "attr": {
          "value": {
            "tensor": { "dtype": "DT_INT32", "tensorShape": { "dim": [{ "size": "2" }] } }
          },
          "dtype": { "type": "DT_INT32" }
        }
      },
      {
        "name": "StatefulPartitionedCall/efficientnetv2-s/blocks_38/se/conv2d/Conv2D/ReadVariableOp",
        "op": "Const",
        "attr": {
          "value": {
            "tensor": {
              "dtype": "DT_FLOAT",
              "tensorShape": {
                "dim": [{ "size": "1" }, { "size": "1" }, { "size": "1536" }, { "size": "64" }]
              }
            }
          },
          "dtype": { "type": "DT_FLOAT" }
        }
      },
      {
        "name": "StatefulPartitionedCall/efficientnetv2-s/blocks_38/se/conv2d/BiasAdd/ReadVariableOp",
        "op": "Const",
        "attr": {
          "value": {
            "tensor": { "dtype": "DT_FLOAT", "tensorShape": { "dim": [{ "size": "64" }] } }
          },
          "dtype": { "type": "DT_FLOAT" }
        }
      },
      {
        "name": "StatefulPartitionedCall/efficientnetv2-s/blocks_38/se/conv2d_1/Conv2D/ReadVariableOp",
        "op": "Const",
        "attr": {
          "value": {
            "tensor": {
              "dtype": "DT_FLOAT",
              "tensorShape": {
                "dim": [{ "size": "1" }, { "size": "1" }, { "size": "64" }, { "size": "1536" }]
              }
            }
          },
          "dtype": { "type": "DT_FLOAT" }
        }
      },
      {
        "name": "StatefulPartitionedCall/efficientnetv2-s/blocks_38/se/conv2d_1/BiasAdd/ReadVariableOp",
        "op": "Const",
        "attr": {
          "value": {
            "tensor": { "dtype": "DT_FLOAT", "tensorShape": { "dim": [{ "size": "1536" }] } }
          },
          "dtype": { "type": "DT_FLOAT" }
        }
      },
      {
        "name": "StatefulPartitionedCall/efficientnetv2-s/blocks_37/se/Mean/reduction_indices",
        "op": "Const",
        "attr": {
          "value": {
            "tensor": { "dtype": "DT_INT32", "tensorShape": { "dim": [{ "size": "2" }] } }
          },
          "dtype": { "type": "DT_INT32" }
        }
      },
      {
        "name": "StatefulPartitionedCall/efficientnetv2-s/blocks_37/se/conv2d/Conv2D/ReadVariableOp",
        "op": "Const",
        "attr": {
          "value": {
            "tensor": {
              "dtype": "DT_FLOAT",
              "tensorShape": {
                "dim": [{ "size": "1" }, { "size": "1" }, { "size": "1536" }, { "size": "64" }]
              }
            }
          },
          "dtype": { "type": "DT_FLOAT" }
        }
      },
      {
        "name": "StatefulPartitionedCall/efficientnetv2-s/blocks_37/se/conv2d/BiasAdd/ReadVariableOp",
        "op": "Const",
        "attr": {
          "value": {
            "tensor": { "dtype": "DT_FLOAT", "tensorShape": { "dim": [{ "size": "64" }] } }
          },
          "dtype": { "type": "DT_FLOAT" }
        }
      },
      {
        "name": "StatefulPartitionedCall/efficientnetv2-s/blocks_37/se/conv2d_1/Conv2D/ReadVariableOp",
        "op": "Const",
        "attr": {
          "value": {
            "tensor": {
              "dtype": "DT_FLOAT",
              "tensorShape": {
                "dim": [{ "size": "1" }, { "size": "1" }, { "size": "64" }, { "size": "1536" }]
              }
            }
          },
          "dtype": { "type": "DT_FLOAT" }
        }
      },
      {
        "name": "StatefulPartitionedCall/efficientnetv2-s/blocks_37/se/conv2d_1/BiasAdd/ReadVariableOp",
        "op": "Const",
        "attr": {
          "value": {
            "tensor": { "dtype": "DT_FLOAT", "tensorShape": { "dim": [{ "size": "1536" }] } }
          },
          "dtype": { "type": "DT_FLOAT" }
        }
      },
      {
        "name": "StatefulPartitionedCall/efficientnetv2-s/blocks_36/se/Mean/reduction_indices",
        "op": "Const",
        "attr": {
          "value": {
            "tensor": { "dtype": "DT_INT32", "tensorShape": { "dim": [{ "size": "2" }] } }
          },
          "dtype": { "type": "DT_INT32" }
        }
      },
      {
        "name": "StatefulPartitionedCall/efficientnetv2-s/blocks_36/se/conv2d/Conv2D/ReadVariableOp",
        "op": "Const",
        "attr": {
          "value": {
            "tensor": {
              "dtype": "DT_FLOAT",
              "tensorShape": {
                "dim": [{ "size": "1" }, { "size": "1" }, { "size": "1536" }, { "size": "64" }]
              }
            }
          },
          "dtype": { "type": "DT_FLOAT" }
        }
      },
      {
        "name": "StatefulPartitionedCall/efficientnetv2-s/blocks_36/se/conv2d/BiasAdd/ReadVariableOp",
        "op": "Const",
        "attr": {
          "value": {
            "tensor": { "dtype": "DT_FLOAT", "tensorShape": { "dim": [{ "size": "64" }] } }
          },
          "dtype": { "type": "DT_FLOAT" }
        }
      },
      {
        "name": "StatefulPartitionedCall/efficientnetv2-s/blocks_36/se/conv2d_1/Conv2D/ReadVariableOp",
        "op": "Const",
        "attr": {
          "value": {
            "tensor": {
              "dtype": "DT_FLOAT",
              "tensorShape": {
                "dim": [{ "size": "1" }, { "size": "1" }, { "size": "64" }, { "size": "1536" }]
              }
            }
          },
          "dtype": { "type": "DT_FLOAT" }
        }
      },
      {
        "name": "StatefulPartitionedCall/efficientnetv2-s/blocks_36/se/conv2d_1/BiasAdd/ReadVariableOp",
        "op": "Const",
        "attr": {
          "value": {
            "tensor": { "dtype": "DT_FLOAT", "tensorShape": { "dim": [{ "size": "1536" }] } }
          },
          "dtype": { "type": "DT_FLOAT" }
        }
      },
      {
        "name": "StatefulPartitionedCall/efficientnetv2-s/blocks_35/se/Mean/reduction_indices",
        "op": "Const",
        "attr": {
          "value": {
            "tensor": { "dtype": "DT_INT32", "tensorShape": { "dim": [{ "size": "2" }] } }
          },
          "dtype": { "type": "DT_INT32" }
        }
      },
      {
        "name": "StatefulPartitionedCall/efficientnetv2-s/blocks_35/se/conv2d/Conv2D/ReadVariableOp",
        "op": "Const",
        "attr": {
          "value": {
            "tensor": {
              "dtype": "DT_FLOAT",
              "tensorShape": {
                "dim": [{ "size": "1" }, { "size": "1" }, { "size": "1536" }, { "size": "64" }]
              }
            }
          },
          "dtype": { "type": "DT_FLOAT" }
        }
      },
      {
        "name": "StatefulPartitionedCall/efficientnetv2-s/blocks_35/se/conv2d/BiasAdd/ReadVariableOp",
        "op": "Const",
        "attr": {
          "value": {
            "tensor": { "dtype": "DT_FLOAT", "tensorShape": { "dim": [{ "size": "64" }] } }
          },
          "dtype": { "type": "DT_FLOAT" }
        }
      },
      {
        "name": "StatefulPartitionedCall/efficientnetv2-s/blocks_35/se/conv2d_1/Conv2D/ReadVariableOp",
        "op": "Const",
        "attr": {
          "value": {
            "tensor": {
              "dtype": "DT_FLOAT",
              "tensorShape": {
                "dim": [{ "size": "1" }, { "size": "1" }, { "size": "64" }, { "size": "1536" }]
              }
            }
          },
          "dtype": { "type": "DT_FLOAT" }
        }
      },
      {
        "name": "StatefulPartitionedCall/efficientnetv2-s/blocks_35/se/conv2d_1/BiasAdd/ReadVariableOp",
        "op": "Const",
        "attr": {
          "value": {
            "tensor": { "dtype": "DT_FLOAT", "tensorShape": { "dim": [{ "size": "1536" }] } }
          },
          "dtype": { "type": "DT_FLOAT" }
        }
      },
      {
        "name": "StatefulPartitionedCall/efficientnetv2-s/blocks_34/se/Mean/reduction_indices",
        "op": "Const",
        "attr": {
          "value": {
            "tensor": { "dtype": "DT_INT32", "tensorShape": { "dim": [{ "size": "2" }] } }
          },
          "dtype": { "type": "DT_INT32" }
        }
      },
      {
        "name": "StatefulPartitionedCall/efficientnetv2-s/blocks_34/se/conv2d/Conv2D/ReadVariableOp",
        "op": "Const",
        "attr": {
          "value": {
            "tensor": {
              "dtype": "DT_FLOAT",
              "tensorShape": {
                "dim": [{ "size": "1" }, { "size": "1" }, { "size": "1536" }, { "size": "64" }]
              }
            }
          },
          "dtype": { "type": "DT_FLOAT" }
        }
      },
      {
        "name": "StatefulPartitionedCall/efficientnetv2-s/blocks_34/se/conv2d/BiasAdd/ReadVariableOp",
        "op": "Const",
        "attr": {
          "value": {
            "tensor": { "dtype": "DT_FLOAT", "tensorShape": { "dim": [{ "size": "64" }] } }
          },
          "dtype": { "type": "DT_FLOAT" }
        }
      },
      {
        "name": "StatefulPartitionedCall/efficientnetv2-s/blocks_34/se/conv2d_1/Conv2D/ReadVariableOp",
        "op": "Const",
        "attr": {
          "value": {
            "tensor": {
              "dtype": "DT_FLOAT",
              "tensorShape": {
                "dim": [{ "size": "1" }, { "size": "1" }, { "size": "64" }, { "size": "1536" }]
              }
            }
          },
          "dtype": { "type": "DT_FLOAT" }
        }
      },
      {
        "name": "StatefulPartitionedCall/efficientnetv2-s/blocks_34/se/conv2d_1/BiasAdd/ReadVariableOp",
        "op": "Const",
        "attr": {
          "value": {
            "tensor": { "dtype": "DT_FLOAT", "tensorShape": { "dim": [{ "size": "1536" }] } }
          },
          "dtype": { "type": "DT_FLOAT" }
        }
      },
      {
        "name": "StatefulPartitionedCall/efficientnetv2-s/blocks_33/se/Mean/reduction_indices",
        "op": "Const",
        "attr": {
          "value": {
            "tensor": { "dtype": "DT_INT32", "tensorShape": { "dim": [{ "size": "2" }] } }
          },
          "dtype": { "type": "DT_INT32" }
        }
      },
      {
        "name": "StatefulPartitionedCall/efficientnetv2-s/blocks_33/se/conv2d/Conv2D/ReadVariableOp",
        "op": "Const",
        "attr": {
          "value": {
            "tensor": {
              "dtype": "DT_FLOAT",
              "tensorShape": {
                "dim": [{ "size": "1" }, { "size": "1" }, { "size": "1536" }, { "size": "64" }]
              }
            }
          },
          "dtype": { "type": "DT_FLOAT" }
        }
      },
      {
        "name": "StatefulPartitionedCall/efficientnetv2-s/blocks_33/se/conv2d/BiasAdd/ReadVariableOp",
        "op": "Const",
        "attr": {
          "value": {
            "tensor": { "dtype": "DT_FLOAT", "tensorShape": { "dim": [{ "size": "64" }] } }
          },
          "dtype": { "type": "DT_FLOAT" }
        }
      },
      {
        "name": "StatefulPartitionedCall/efficientnetv2-s/blocks_33/se/conv2d_1/Conv2D/ReadVariableOp",
        "op": "Const",
        "attr": {
          "value": {
            "tensor": {
              "dtype": "DT_FLOAT",
              "tensorShape": {
                "dim": [{ "size": "1" }, { "size": "1" }, { "size": "64" }, { "size": "1536" }]
              }
            }
          },
          "dtype": { "type": "DT_FLOAT" }
        }
      },
      {
        "name": "StatefulPartitionedCall/efficientnetv2-s/blocks_33/se/conv2d_1/BiasAdd/ReadVariableOp",
        "op": "Const",
        "attr": {
          "value": {
            "tensor": { "dtype": "DT_FLOAT", "tensorShape": { "dim": [{ "size": "1536" }] } }
          },
          "dtype": { "type": "DT_FLOAT" }
        }
      },
      {
        "name": "StatefulPartitionedCall/efficientnetv2-s/blocks_32/se/Mean/reduction_indices",
        "op": "Const",
        "attr": {
          "value": {
            "tensor": { "dtype": "DT_INT32", "tensorShape": { "dim": [{ "size": "2" }] } }
          },
          "dtype": { "type": "DT_INT32" }
        }
      },
      {
        "name": "StatefulPartitionedCall/efficientnetv2-s/blocks_32/se/conv2d/Conv2D/ReadVariableOp",
        "op": "Const",
        "attr": {
          "value": {
            "tensor": {
              "dtype": "DT_FLOAT",
              "tensorShape": {
                "dim": [{ "size": "1" }, { "size": "1" }, { "size": "1536" }, { "size": "64" }]
              }
            }
          },
          "dtype": { "type": "DT_FLOAT" }
        }
      },
      {
        "name": "StatefulPartitionedCall/efficientnetv2-s/blocks_32/se/conv2d/BiasAdd/ReadVariableOp",
        "op": "Const",
        "attr": {
          "value": {
            "tensor": { "dtype": "DT_FLOAT", "tensorShape": { "dim": [{ "size": "64" }] } }
          },
          "dtype": { "type": "DT_FLOAT" }
        }
      },
      {
        "name": "StatefulPartitionedCall/efficientnetv2-s/blocks_32/se/conv2d_1/Conv2D/ReadVariableOp",
        "op": "Const",
        "attr": {
          "value": {
            "tensor": {
              "dtype": "DT_FLOAT",
              "tensorShape": {
                "dim": [{ "size": "1" }, { "size": "1" }, { "size": "64" }, { "size": "1536" }]
              }
            }
          },
          "dtype": { "type": "DT_FLOAT" }
        }
      },
      {
        "name": "StatefulPartitionedCall/efficientnetv2-s/blocks_32/se/conv2d_1/BiasAdd/ReadVariableOp",
        "op": "Const",
        "attr": {
          "value": {
            "tensor": { "dtype": "DT_FLOAT", "tensorShape": { "dim": [{ "size": "1536" }] } }
          },
          "dtype": { "type": "DT_FLOAT" }
        }
      },
      {
        "name": "StatefulPartitionedCall/efficientnetv2-s/blocks_31/se/Mean/reduction_indices",
        "op": "Const",
        "attr": {
          "value": {
            "tensor": { "dtype": "DT_INT32", "tensorShape": { "dim": [{ "size": "2" }] } }
          },
          "dtype": { "type": "DT_INT32" }
        }
      },
      {
        "name": "StatefulPartitionedCall/efficientnetv2-s/blocks_31/se/conv2d/Conv2D/ReadVariableOp",
        "op": "Const",
        "attr": {
          "value": {
            "tensor": {
              "dtype": "DT_FLOAT",
              "tensorShape": {
                "dim": [{ "size": "1" }, { "size": "1" }, { "size": "1536" }, { "size": "64" }]
              }
            }
          },
          "dtype": { "type": "DT_FLOAT" }
        }
      },
      {
        "name": "StatefulPartitionedCall/efficientnetv2-s/blocks_31/se/conv2d/BiasAdd/ReadVariableOp",
        "op": "Const",
        "attr": {
          "value": {
            "tensor": { "dtype": "DT_FLOAT", "tensorShape": { "dim": [{ "size": "64" }] } }
          },
          "dtype": { "type": "DT_FLOAT" }
        }
      },
      {
        "name": "StatefulPartitionedCall/efficientnetv2-s/blocks_31/se/conv2d_1/Conv2D/ReadVariableOp",
        "op": "Const",
        "attr": {
          "value": {
            "tensor": {
              "dtype": "DT_FLOAT",
              "tensorShape": {
                "dim": [{ "size": "1" }, { "size": "1" }, { "size": "64" }, { "size": "1536" }]
              }
            }
          },
          "dtype": { "type": "DT_FLOAT" }
        }
      },
      {
        "name": "StatefulPartitionedCall/efficientnetv2-s/blocks_31/se/conv2d_1/BiasAdd/ReadVariableOp",
        "op": "Const",
        "attr": {
          "value": {
            "tensor": { "dtype": "DT_FLOAT", "tensorShape": { "dim": [{ "size": "1536" }] } }
          },
          "dtype": { "type": "DT_FLOAT" }
        }
      },
      {
        "name": "StatefulPartitionedCall/efficientnetv2-s/blocks_30/se/Mean/reduction_indices",
        "op": "Const",
        "attr": {
          "value": {
            "tensor": { "dtype": "DT_INT32", "tensorShape": { "dim": [{ "size": "2" }] } }
          },
          "dtype": { "type": "DT_INT32" }
        }
      },
      {
        "name": "StatefulPartitionedCall/efficientnetv2-s/blocks_30/se/conv2d/Conv2D/ReadVariableOp",
        "op": "Const",
        "attr": {
          "value": {
            "tensor": {
              "dtype": "DT_FLOAT",
              "tensorShape": {
                "dim": [{ "size": "1" }, { "size": "1" }, { "size": "1536" }, { "size": "64" }]
              }
            }
          },
          "dtype": { "type": "DT_FLOAT" }
        }
      },
      {
        "name": "StatefulPartitionedCall/efficientnetv2-s/blocks_30/se/conv2d/BiasAdd/ReadVariableOp",
        "op": "Const",
        "attr": {
          "value": {
            "tensor": { "dtype": "DT_FLOAT", "tensorShape": { "dim": [{ "size": "64" }] } }
          },
          "dtype": { "type": "DT_FLOAT" }
        }
      },
      {
        "name": "StatefulPartitionedCall/efficientnetv2-s/blocks_30/se/conv2d_1/Conv2D/ReadVariableOp",
        "op": "Const",
        "attr": {
          "value": {
            "tensor": {
              "dtype": "DT_FLOAT",
              "tensorShape": {
                "dim": [{ "size": "1" }, { "size": "1" }, { "size": "64" }, { "size": "1536" }]
              }
            }
          },
          "dtype": { "type": "DT_FLOAT" }
        }
      },
      {
        "name": "StatefulPartitionedCall/efficientnetv2-s/blocks_30/se/conv2d_1/BiasAdd/ReadVariableOp",
        "op": "Const",
        "attr": {
          "value": {
            "tensor": { "dtype": "DT_FLOAT", "tensorShape": { "dim": [{ "size": "1536" }] } }
          },
          "dtype": { "type": "DT_FLOAT" }
        }
      },
      {
        "name": "StatefulPartitionedCall/efficientnetv2-s/blocks_29/se/Mean/reduction_indices",
        "op": "Const",
        "attr": {
          "value": {
            "tensor": { "dtype": "DT_INT32", "tensorShape": { "dim": [{ "size": "2" }] } }
          },
          "dtype": { "type": "DT_INT32" }
        }
      },
      {
        "name": "StatefulPartitionedCall/efficientnetv2-s/blocks_29/se/conv2d/Conv2D/ReadVariableOp",
        "op": "Const",
        "attr": {
          "value": {
            "tensor": {
              "dtype": "DT_FLOAT",
              "tensorShape": {
                "dim": [{ "size": "1" }, { "size": "1" }, { "size": "1536" }, { "size": "64" }]
              }
            }
          },
          "dtype": { "type": "DT_FLOAT" }
        }
      },
      {
        "name": "StatefulPartitionedCall/efficientnetv2-s/blocks_29/se/conv2d/BiasAdd/ReadVariableOp",
        "op": "Const",
        "attr": {
          "value": {
            "tensor": { "dtype": "DT_FLOAT", "tensorShape": { "dim": [{ "size": "64" }] } }
          },
          "dtype": { "type": "DT_FLOAT" }
        }
      },
      {
        "name": "StatefulPartitionedCall/efficientnetv2-s/blocks_29/se/conv2d_1/Conv2D/ReadVariableOp",
        "op": "Const",
        "attr": {
          "value": {
            "tensor": {
              "dtype": "DT_FLOAT",
              "tensorShape": {
                "dim": [{ "size": "1" }, { "size": "1" }, { "size": "64" }, { "size": "1536" }]
              }
            }
          },
          "dtype": { "type": "DT_FLOAT" }
        }
      },
      {
        "name": "StatefulPartitionedCall/efficientnetv2-s/blocks_29/se/conv2d_1/BiasAdd/ReadVariableOp",
        "op": "Const",
        "attr": {
          "value": {
            "tensor": { "dtype": "DT_FLOAT", "tensorShape": { "dim": [{ "size": "1536" }] } }
          },
          "dtype": { "type": "DT_FLOAT" }
        }
      },
      {
        "name": "StatefulPartitionedCall/efficientnetv2-s/blocks_28/se/Mean/reduction_indices",
        "op": "Const",
        "attr": {
          "value": {
            "tensor": { "dtype": "DT_INT32", "tensorShape": { "dim": [{ "size": "2" }] } }
          },
          "dtype": { "type": "DT_INT32" }
        }
      },
      {
        "name": "StatefulPartitionedCall/efficientnetv2-s/blocks_28/se/conv2d/Conv2D/ReadVariableOp",
        "op": "Const",
        "attr": {
          "value": {
            "tensor": {
              "dtype": "DT_FLOAT",
              "tensorShape": {
                "dim": [{ "size": "1" }, { "size": "1" }, { "size": "1536" }, { "size": "64" }]
              }
            }
          },
          "dtype": { "type": "DT_FLOAT" }
        }
      },
      {
        "name": "StatefulPartitionedCall/efficientnetv2-s/blocks_28/se/conv2d/BiasAdd/ReadVariableOp",
        "op": "Const",
        "attr": {
          "value": {
            "tensor": { "dtype": "DT_FLOAT", "tensorShape": { "dim": [{ "size": "64" }] } }
          },
          "dtype": { "type": "DT_FLOAT" }
        }
      },
      {
        "name": "StatefulPartitionedCall/efficientnetv2-s/blocks_28/se/conv2d_1/Conv2D/ReadVariableOp",
        "op": "Const",
        "attr": {
          "value": {
            "tensor": {
              "dtype": "DT_FLOAT",
              "tensorShape": {
                "dim": [{ "size": "1" }, { "size": "1" }, { "size": "64" }, { "size": "1536" }]
              }
            }
          },
          "dtype": { "type": "DT_FLOAT" }
        }
      },
      {
        "name": "StatefulPartitionedCall/efficientnetv2-s/blocks_28/se/conv2d_1/BiasAdd/ReadVariableOp",
        "op": "Const",
        "attr": {
          "value": {
            "tensor": { "dtype": "DT_FLOAT", "tensorShape": { "dim": [{ "size": "1536" }] } }
          },
          "dtype": { "type": "DT_FLOAT" }
        }
      },
      {
        "name": "StatefulPartitionedCall/efficientnetv2-s/blocks_27/se/Mean/reduction_indices",
        "op": "Const",
        "attr": {
          "value": {
            "tensor": { "dtype": "DT_INT32", "tensorShape": { "dim": [{ "size": "2" }] } }
          },
          "dtype": { "type": "DT_INT32" }
        }
      },
      {
        "name": "StatefulPartitionedCall/efficientnetv2-s/blocks_27/se/conv2d/Conv2D/ReadVariableOp",
        "op": "Const",
        "attr": {
          "value": {
            "tensor": {
              "dtype": "DT_FLOAT",
              "tensorShape": {
                "dim": [{ "size": "1" }, { "size": "1" }, { "size": "1536" }, { "size": "64" }]
              }
            }
          },
          "dtype": { "type": "DT_FLOAT" }
        }
      },
      {
        "name": "StatefulPartitionedCall/efficientnetv2-s/blocks_27/se/conv2d/BiasAdd/ReadVariableOp",
        "op": "Const",
        "attr": {
          "value": {
            "tensor": { "dtype": "DT_FLOAT", "tensorShape": { "dim": [{ "size": "64" }] } }
          },
          "dtype": { "type": "DT_FLOAT" }
        }
      },
      {
        "name": "StatefulPartitionedCall/efficientnetv2-s/blocks_27/se/conv2d_1/Conv2D/ReadVariableOp",
        "op": "Const",
        "attr": {
          "value": {
            "tensor": {
              "dtype": "DT_FLOAT",
              "tensorShape": {
                "dim": [{ "size": "1" }, { "size": "1" }, { "size": "64" }, { "size": "1536" }]
              }
            }
          },
          "dtype": { "type": "DT_FLOAT" }
        }
      },
      {
        "name": "StatefulPartitionedCall/efficientnetv2-s/blocks_27/se/conv2d_1/BiasAdd/ReadVariableOp",
        "op": "Const",
        "attr": {
          "value": {
            "tensor": { "dtype": "DT_FLOAT", "tensorShape": { "dim": [{ "size": "1536" }] } }
          },
          "dtype": { "type": "DT_FLOAT" }
        }
      },
      {
        "name": "StatefulPartitionedCall/efficientnetv2-s/blocks_26/se/Mean/reduction_indices",
        "op": "Const",
        "attr": {
          "value": {
            "tensor": { "dtype": "DT_INT32", "tensorShape": { "dim": [{ "size": "2" }] } }
          },
          "dtype": { "type": "DT_INT32" }
        }
      },
      {
        "name": "StatefulPartitionedCall/efficientnetv2-s/blocks_26/se/conv2d/Conv2D/ReadVariableOp",
        "op": "Const",
        "attr": {
          "value": {
            "tensor": {
              "dtype": "DT_FLOAT",
              "tensorShape": {
                "dim": [{ "size": "1" }, { "size": "1" }, { "size": "1536" }, { "size": "64" }]
              }
            }
          },
          "dtype": { "type": "DT_FLOAT" }
        }
      },
      {
        "name": "StatefulPartitionedCall/efficientnetv2-s/blocks_26/se/conv2d/BiasAdd/ReadVariableOp",
        "op": "Const",
        "attr": {
          "value": {
            "tensor": { "dtype": "DT_FLOAT", "tensorShape": { "dim": [{ "size": "64" }] } }
          },
          "dtype": { "type": "DT_FLOAT" }
        }
      },
      {
        "name": "StatefulPartitionedCall/efficientnetv2-s/blocks_26/se/conv2d_1/Conv2D/ReadVariableOp",
        "op": "Const",
        "attr": {
          "value": {
            "tensor": {
              "dtype": "DT_FLOAT",
              "tensorShape": {
                "dim": [{ "size": "1" }, { "size": "1" }, { "size": "64" }, { "size": "1536" }]
              }
            }
          },
          "dtype": { "type": "DT_FLOAT" }
        }
      },
      {
        "name": "StatefulPartitionedCall/efficientnetv2-s/blocks_26/se/conv2d_1/BiasAdd/ReadVariableOp",
        "op": "Const",
        "attr": {
          "value": {
            "tensor": { "dtype": "DT_FLOAT", "tensorShape": { "dim": [{ "size": "1536" }] } }
          },
          "dtype": { "type": "DT_FLOAT" }
        }
      },
      {
        "name": "StatefulPartitionedCall/efficientnetv2-s/blocks_25/se/Mean/reduction_indices",
        "op": "Const",
        "attr": {
          "value": {
            "tensor": { "dtype": "DT_INT32", "tensorShape": { "dim": [{ "size": "2" }] } }
          },
          "dtype": { "type": "DT_INT32" }
        }
      },
      {
        "name": "StatefulPartitionedCall/efficientnetv2-s/blocks_25/se/conv2d/Conv2D/ReadVariableOp",
        "op": "Const",
        "attr": {
          "value": {
            "tensor": {
              "dtype": "DT_FLOAT",
              "tensorShape": {
                "dim": [{ "size": "1" }, { "size": "1" }, { "size": "960" }, { "size": "40" }]
              }
            }
          },
          "dtype": { "type": "DT_FLOAT" }
        }
      },
      {
        "name": "StatefulPartitionedCall/efficientnetv2-s/blocks_25/se/conv2d/BiasAdd/ReadVariableOp",
        "op": "Const",
        "attr": {
          "value": {
            "tensor": { "dtype": "DT_FLOAT", "tensorShape": { "dim": [{ "size": "40" }] } }
          },
          "dtype": { "type": "DT_FLOAT" }
        }
      },
      {
        "name": "StatefulPartitionedCall/efficientnetv2-s/blocks_25/se/conv2d_1/Conv2D/ReadVariableOp",
        "op": "Const",
        "attr": {
          "value": {
            "tensor": {
              "dtype": "DT_FLOAT",
              "tensorShape": {
                "dim": [{ "size": "1" }, { "size": "1" }, { "size": "40" }, { "size": "960" }]
              }
            }
          },
          "dtype": { "type": "DT_FLOAT" }
        }
      },
      {
        "name": "StatefulPartitionedCall/efficientnetv2-s/blocks_25/se/conv2d_1/BiasAdd/ReadVariableOp",
        "op": "Const",
        "attr": {
          "value": {
            "tensor": { "dtype": "DT_FLOAT", "tensorShape": { "dim": [{ "size": "960" }] } }
          },
          "dtype": { "type": "DT_FLOAT" }
        }
      },
      {
        "name": "StatefulPartitionedCall/efficientnetv2-s/blocks_24/se/Mean/reduction_indices",
        "op": "Const",
        "attr": {
          "value": {
            "tensor": { "dtype": "DT_INT32", "tensorShape": { "dim": [{ "size": "2" }] } }
          },
          "dtype": { "type": "DT_INT32" }
        }
      },
      {
        "name": "StatefulPartitionedCall/efficientnetv2-s/blocks_24/se/conv2d/Conv2D/ReadVariableOp",
        "op": "Const",
        "attr": {
          "value": {
            "tensor": {
              "dtype": "DT_FLOAT",
              "tensorShape": {
                "dim": [{ "size": "1" }, { "size": "1" }, { "size": "960" }, { "size": "40" }]
              }
            }
          },
          "dtype": { "type": "DT_FLOAT" }
        }
      },
      {
        "name": "StatefulPartitionedCall/efficientnetv2-s/blocks_24/se/conv2d/BiasAdd/ReadVariableOp",
        "op": "Const",
        "attr": {
          "value": {
            "tensor": { "dtype": "DT_FLOAT", "tensorShape": { "dim": [{ "size": "40" }] } }
          },
          "dtype": { "type": "DT_FLOAT" }
        }
      },
      {
        "name": "StatefulPartitionedCall/efficientnetv2-s/blocks_24/se/conv2d_1/Conv2D/ReadVariableOp",
        "op": "Const",
        "attr": {
          "value": {
            "tensor": {
              "dtype": "DT_FLOAT",
              "tensorShape": {
                "dim": [{ "size": "1" }, { "size": "1" }, { "size": "40" }, { "size": "960" }]
              }
            }
          },
          "dtype": { "type": "DT_FLOAT" }
        }
      },
      {
        "name": "StatefulPartitionedCall/efficientnetv2-s/blocks_24/se/conv2d_1/BiasAdd/ReadVariableOp",
        "op": "Const",
        "attr": {
          "value": {
            "tensor": { "dtype": "DT_FLOAT", "tensorShape": { "dim": [{ "size": "960" }] } }
          },
          "dtype": { "type": "DT_FLOAT" }
        }
      },
      {
        "name": "StatefulPartitionedCall/efficientnetv2-s/blocks_23/se/Mean/reduction_indices",
        "op": "Const",
        "attr": {
          "value": {
            "tensor": { "dtype": "DT_INT32", "tensorShape": { "dim": [{ "size": "2" }] } }
          },
          "dtype": { "type": "DT_INT32" }
        }
      },
      {
        "name": "StatefulPartitionedCall/efficientnetv2-s/blocks_23/se/conv2d/Conv2D/ReadVariableOp",
        "op": "Const",
        "attr": {
          "value": {
            "tensor": {
              "dtype": "DT_FLOAT",
              "tensorShape": {
                "dim": [{ "size": "1" }, { "size": "1" }, { "size": "960" }, { "size": "40" }]
              }
            }
          },
          "dtype": { "type": "DT_FLOAT" }
        }
      },
      {
        "name": "StatefulPartitionedCall/efficientnetv2-s/blocks_23/se/conv2d/BiasAdd/ReadVariableOp",
        "op": "Const",
        "attr": {
          "value": {
            "tensor": { "dtype": "DT_FLOAT", "tensorShape": { "dim": [{ "size": "40" }] } }
          },
          "dtype": { "type": "DT_FLOAT" }
        }
      },
      {
        "name": "StatefulPartitionedCall/efficientnetv2-s/blocks_23/se/conv2d_1/Conv2D/ReadVariableOp",
        "op": "Const",
        "attr": {
          "value": {
            "tensor": {
              "dtype": "DT_FLOAT",
              "tensorShape": {
                "dim": [{ "size": "1" }, { "size": "1" }, { "size": "40" }, { "size": "960" }]
              }
            }
          },
          "dtype": { "type": "DT_FLOAT" }
        }
      },
      {
        "name": "StatefulPartitionedCall/efficientnetv2-s/blocks_23/se/conv2d_1/BiasAdd/ReadVariableOp",
        "op": "Const",
        "attr": {
          "value": {
            "tensor": { "dtype": "DT_FLOAT", "tensorShape": { "dim": [{ "size": "960" }] } }
          },
          "dtype": { "type": "DT_FLOAT" }
        }
      },
      {
        "name": "StatefulPartitionedCall/efficientnetv2-s/blocks_22/se/Mean/reduction_indices",
        "op": "Const",
        "attr": {
          "value": {
            "tensor": { "dtype": "DT_INT32", "tensorShape": { "dim": [{ "size": "2" }] } }
          },
          "dtype": { "type": "DT_INT32" }
        }
      },
      {
        "name": "StatefulPartitionedCall/efficientnetv2-s/blocks_22/se/conv2d/Conv2D/ReadVariableOp",
        "op": "Const",
        "attr": {
          "value": {
            "tensor": {
              "dtype": "DT_FLOAT",
              "tensorShape": {
                "dim": [{ "size": "1" }, { "size": "1" }, { "size": "960" }, { "size": "40" }]
              }
            }
          },
          "dtype": { "type": "DT_FLOAT" }
        }
      },
      {
        "name": "StatefulPartitionedCall/efficientnetv2-s/blocks_22/se/conv2d/BiasAdd/ReadVariableOp",
        "op": "Const",
        "attr": {
          "value": {
            "tensor": { "dtype": "DT_FLOAT", "tensorShape": { "dim": [{ "size": "40" }] } }
          },
          "dtype": { "type": "DT_FLOAT" }
        }
      },
      {
        "name": "StatefulPartitionedCall/efficientnetv2-s/blocks_22/se/conv2d_1/Conv2D/ReadVariableOp",
        "op": "Const",
        "attr": {
          "value": {
            "tensor": {
              "dtype": "DT_FLOAT",
              "tensorShape": {
                "dim": [{ "size": "1" }, { "size": "1" }, { "size": "40" }, { "size": "960" }]
              }
            }
          },
          "dtype": { "type": "DT_FLOAT" }
        }
      },
      {
        "name": "StatefulPartitionedCall/efficientnetv2-s/blocks_22/se/conv2d_1/BiasAdd/ReadVariableOp",
        "op": "Const",
        "attr": {
          "value": {
            "tensor": { "dtype": "DT_FLOAT", "tensorShape": { "dim": [{ "size": "960" }] } }
          },
          "dtype": { "type": "DT_FLOAT" }
        }
      },
      {
        "name": "StatefulPartitionedCall/efficientnetv2-s/blocks_21/se/Mean/reduction_indices",
        "op": "Const",
        "attr": {
          "value": {
            "tensor": { "dtype": "DT_INT32", "tensorShape": { "dim": [{ "size": "2" }] } }
          },
          "dtype": { "type": "DT_INT32" }
        }
      },
      {
        "name": "StatefulPartitionedCall/efficientnetv2-s/blocks_21/se/conv2d/Conv2D/ReadVariableOp",
        "op": "Const",
        "attr": {
          "value": {
            "tensor": {
              "dtype": "DT_FLOAT",
              "tensorShape": {
                "dim": [{ "size": "1" }, { "size": "1" }, { "size": "960" }, { "size": "40" }]
              }
            }
          },
          "dtype": { "type": "DT_FLOAT" }
        }
      },
      {
        "name": "StatefulPartitionedCall/efficientnetv2-s/blocks_21/se/conv2d/BiasAdd/ReadVariableOp",
        "op": "Const",
        "attr": {
          "value": {
            "tensor": { "dtype": "DT_FLOAT", "tensorShape": { "dim": [{ "size": "40" }] } }
          },
          "dtype": { "type": "DT_FLOAT" }
        }
      },
      {
        "name": "StatefulPartitionedCall/efficientnetv2-s/blocks_21/se/conv2d_1/Conv2D/ReadVariableOp",
        "op": "Const",
        "attr": {
          "value": {
            "tensor": {
              "dtype": "DT_FLOAT",
              "tensorShape": {
                "dim": [{ "size": "1" }, { "size": "1" }, { "size": "40" }, { "size": "960" }]
              }
            }
          },
          "dtype": { "type": "DT_FLOAT" }
        }
      },
      {
        "name": "StatefulPartitionedCall/efficientnetv2-s/blocks_21/se/conv2d_1/BiasAdd/ReadVariableOp",
        "op": "Const",
        "attr": {
          "value": {
            "tensor": { "dtype": "DT_FLOAT", "tensorShape": { "dim": [{ "size": "960" }] } }
          },
          "dtype": { "type": "DT_FLOAT" }
        }
      },
      {
        "name": "StatefulPartitionedCall/efficientnetv2-s/blocks_20/se/Mean/reduction_indices",
        "op": "Const",
        "attr": {
          "value": {
            "tensor": { "dtype": "DT_INT32", "tensorShape": { "dim": [{ "size": "2" }] } }
          },
          "dtype": { "type": "DT_INT32" }
        }
      },
      {
        "name": "StatefulPartitionedCall/efficientnetv2-s/blocks_20/se/conv2d/Conv2D/ReadVariableOp",
        "op": "Const",
        "attr": {
          "value": {
            "tensor": {
              "dtype": "DT_FLOAT",
              "tensorShape": {
                "dim": [{ "size": "1" }, { "size": "1" }, { "size": "960" }, { "size": "40" }]
              }
            }
          },
          "dtype": { "type": "DT_FLOAT" }
        }
      },
      {
        "name": "StatefulPartitionedCall/efficientnetv2-s/blocks_20/se/conv2d/BiasAdd/ReadVariableOp",
        "op": "Const",
        "attr": {
          "value": {
            "tensor": { "dtype": "DT_FLOAT", "tensorShape": { "dim": [{ "size": "40" }] } }
          },
          "dtype": { "type": "DT_FLOAT" }
        }
      },
      {
        "name": "StatefulPartitionedCall/efficientnetv2-s/blocks_20/se/conv2d_1/Conv2D/ReadVariableOp",
        "op": "Const",
        "attr": {
          "value": {
            "tensor": {
              "dtype": "DT_FLOAT",
              "tensorShape": {
                "dim": [{ "size": "1" }, { "size": "1" }, { "size": "40" }, { "size": "960" }]
              }
            }
          },
          "dtype": { "type": "DT_FLOAT" }
        }
      },
      {
        "name": "StatefulPartitionedCall/efficientnetv2-s/blocks_20/se/conv2d_1/BiasAdd/ReadVariableOp",
        "op": "Const",
        "attr": {
          "value": {
            "tensor": { "dtype": "DT_FLOAT", "tensorShape": { "dim": [{ "size": "960" }] } }
          },
          "dtype": { "type": "DT_FLOAT" }
        }
      },
      {
        "name": "StatefulPartitionedCall/efficientnetv2-s/blocks_19/se/Mean/reduction_indices",
        "op": "Const",
        "attr": {
          "value": {
            "tensor": { "dtype": "DT_INT32", "tensorShape": { "dim": [{ "size": "2" }] } }
          },
          "dtype": { "type": "DT_INT32" }
        }
      },
      {
        "name": "StatefulPartitionedCall/efficientnetv2-s/blocks_19/se/conv2d/Conv2D/ReadVariableOp",
        "op": "Const",
        "attr": {
          "value": {
            "tensor": {
              "dtype": "DT_FLOAT",
              "tensorShape": {
                "dim": [{ "size": "1" }, { "size": "1" }, { "size": "960" }, { "size": "40" }]
              }
            }
          },
          "dtype": { "type": "DT_FLOAT" }
        }
      },
      {
        "name": "StatefulPartitionedCall/efficientnetv2-s/blocks_19/se/conv2d/BiasAdd/ReadVariableOp",
        "op": "Const",
        "attr": {
          "value": {
            "tensor": { "dtype": "DT_FLOAT", "tensorShape": { "dim": [{ "size": "40" }] } }
          },
          "dtype": { "type": "DT_FLOAT" }
        }
      },
      {
        "name": "StatefulPartitionedCall/efficientnetv2-s/blocks_19/se/conv2d_1/Conv2D/ReadVariableOp",
        "op": "Const",
        "attr": {
          "value": {
            "tensor": {
              "dtype": "DT_FLOAT",
              "tensorShape": {
                "dim": [{ "size": "1" }, { "size": "1" }, { "size": "40" }, { "size": "960" }]
              }
            }
          },
          "dtype": { "type": "DT_FLOAT" }
        }
      },
      {
        "name": "StatefulPartitionedCall/efficientnetv2-s/blocks_19/se/conv2d_1/BiasAdd/ReadVariableOp",
        "op": "Const",
        "attr": {
          "value": {
            "tensor": { "dtype": "DT_FLOAT", "tensorShape": { "dim": [{ "size": "960" }] } }
          },
          "dtype": { "type": "DT_FLOAT" }
        }
      },
      {
        "name": "StatefulPartitionedCall/efficientnetv2-s/blocks_18/se/Mean/reduction_indices",
        "op": "Const",
        "attr": {
          "value": {
            "tensor": { "dtype": "DT_INT32", "tensorShape": { "dim": [{ "size": "2" }] } }
          },
          "dtype": { "type": "DT_INT32" }
        }
      },
      {
        "name": "StatefulPartitionedCall/efficientnetv2-s/blocks_18/se/conv2d/Conv2D/ReadVariableOp",
        "op": "Const",
        "attr": {
          "value": {
            "tensor": {
              "dtype": "DT_FLOAT",
              "tensorShape": {
                "dim": [{ "size": "1" }, { "size": "1" }, { "size": "960" }, { "size": "40" }]
              }
            }
          },
          "dtype": { "type": "DT_FLOAT" }
        }
      },
      {
        "name": "StatefulPartitionedCall/efficientnetv2-s/blocks_18/se/conv2d/BiasAdd/ReadVariableOp",
        "op": "Const",
        "attr": {
          "value": {
            "tensor": { "dtype": "DT_FLOAT", "tensorShape": { "dim": [{ "size": "40" }] } }
          },
          "dtype": { "type": "DT_FLOAT" }
        }
      },
      {
        "name": "StatefulPartitionedCall/efficientnetv2-s/blocks_18/se/conv2d_1/Conv2D/ReadVariableOp",
        "op": "Const",
        "attr": {
          "value": {
            "tensor": {
              "dtype": "DT_FLOAT",
              "tensorShape": {
                "dim": [{ "size": "1" }, { "size": "1" }, { "size": "40" }, { "size": "960" }]
              }
            }
          },
          "dtype": { "type": "DT_FLOAT" }
        }
      },
      {
        "name": "StatefulPartitionedCall/efficientnetv2-s/blocks_18/se/conv2d_1/BiasAdd/ReadVariableOp",
        "op": "Const",
        "attr": {
          "value": {
            "tensor": { "dtype": "DT_FLOAT", "tensorShape": { "dim": [{ "size": "960" }] } }
          },
          "dtype": { "type": "DT_FLOAT" }
        }
      },
      {
        "name": "StatefulPartitionedCall/efficientnetv2-s/blocks_17/se/Mean/reduction_indices",
        "op": "Const",
        "attr": {
          "value": {
            "tensor": { "dtype": "DT_INT32", "tensorShape": { "dim": [{ "size": "2" }] } }
          },
          "dtype": { "type": "DT_INT32" }
        }
      },
      {
        "name": "StatefulPartitionedCall/efficientnetv2-s/blocks_17/se/conv2d/Conv2D/ReadVariableOp",
        "op": "Const",
        "attr": {
          "value": {
            "tensor": {
              "dtype": "DT_FLOAT",
              "tensorShape": {
                "dim": [{ "size": "1" }, { "size": "1" }, { "size": "960" }, { "size": "40" }]
              }
            }
          },
          "dtype": { "type": "DT_FLOAT" }
        }
      },
      {
        "name": "StatefulPartitionedCall/efficientnetv2-s/blocks_17/se/conv2d/BiasAdd/ReadVariableOp",
        "op": "Const",
        "attr": {
          "value": {
            "tensor": { "dtype": "DT_FLOAT", "tensorShape": { "dim": [{ "size": "40" }] } }
          },
          "dtype": { "type": "DT_FLOAT" }
        }
      },
      {
        "name": "StatefulPartitionedCall/efficientnetv2-s/blocks_17/se/conv2d_1/Conv2D/ReadVariableOp",
        "op": "Const",
        "attr": {
          "value": {
            "tensor": {
              "dtype": "DT_FLOAT",
              "tensorShape": {
                "dim": [{ "size": "1" }, { "size": "1" }, { "size": "40" }, { "size": "960" }]
              }
            }
          },
          "dtype": { "type": "DT_FLOAT" }
        }
      },
      {
        "name": "StatefulPartitionedCall/efficientnetv2-s/blocks_17/se/conv2d_1/BiasAdd/ReadVariableOp",
        "op": "Const",
        "attr": {
          "value": {
            "tensor": { "dtype": "DT_FLOAT", "tensorShape": { "dim": [{ "size": "960" }] } }
          },
          "dtype": { "type": "DT_FLOAT" }
        }
      },
      {
        "name": "StatefulPartitionedCall/efficientnetv2-s/blocks_16/se/Mean/reduction_indices",
        "op": "Const",
        "attr": {
          "value": {
            "tensor": { "dtype": "DT_INT32", "tensorShape": { "dim": [{ "size": "2" }] } }
          },
          "dtype": { "type": "DT_INT32" }
        }
      },
      {
        "name": "StatefulPartitionedCall/efficientnetv2-s/blocks_16/se/conv2d/Conv2D/ReadVariableOp",
        "op": "Const",
        "attr": {
          "value": {
            "tensor": {
              "dtype": "DT_FLOAT",
              "tensorShape": {
                "dim": [{ "size": "1" }, { "size": "1" }, { "size": "768" }, { "size": "32" }]
              }
            }
          },
          "dtype": { "type": "DT_FLOAT" }
        }
      },
      {
        "name": "StatefulPartitionedCall/efficientnetv2-s/blocks_16/se/conv2d/BiasAdd/ReadVariableOp",
        "op": "Const",
        "attr": {
          "value": {
            "tensor": { "dtype": "DT_FLOAT", "tensorShape": { "dim": [{ "size": "32" }] } }
          },
          "dtype": { "type": "DT_FLOAT" }
        }
      },
      {
        "name": "StatefulPartitionedCall/efficientnetv2-s/blocks_16/se/conv2d_1/Conv2D/ReadVariableOp",
        "op": "Const",
        "attr": {
          "value": {
            "tensor": {
              "dtype": "DT_FLOAT",
              "tensorShape": {
                "dim": [{ "size": "1" }, { "size": "1" }, { "size": "32" }, { "size": "768" }]
              }
            }
          },
          "dtype": { "type": "DT_FLOAT" }
        }
      },
      {
        "name": "StatefulPartitionedCall/efficientnetv2-s/blocks_16/se/conv2d_1/BiasAdd/ReadVariableOp",
        "op": "Const",
        "attr": {
          "value": {
            "tensor": { "dtype": "DT_FLOAT", "tensorShape": { "dim": [{ "size": "768" }] } }
          },
          "dtype": { "type": "DT_FLOAT" }
        }
      },
      {
        "name": "StatefulPartitionedCall/efficientnetv2-s/blocks_15/se/Mean/reduction_indices",
        "op": "Const",
        "attr": {
          "value": {
            "tensor": { "dtype": "DT_INT32", "tensorShape": { "dim": [{ "size": "2" }] } }
          },
          "dtype": { "type": "DT_INT32" }
        }
      },
      {
        "name": "StatefulPartitionedCall/efficientnetv2-s/blocks_15/se/conv2d/Conv2D/ReadVariableOp",
        "op": "Const",
        "attr": {
          "value": {
            "tensor": {
              "dtype": "DT_FLOAT",
              "tensorShape": {
                "dim": [{ "size": "1" }, { "size": "1" }, { "size": "512" }, { "size": "32" }]
              }
            }
          },
          "dtype": { "type": "DT_FLOAT" }
        }
      },
      {
        "name": "StatefulPartitionedCall/efficientnetv2-s/blocks_15/se/conv2d/BiasAdd/ReadVariableOp",
        "op": "Const",
        "attr": {
          "value": {
            "tensor": { "dtype": "DT_FLOAT", "tensorShape": { "dim": [{ "size": "32" }] } }
          },
          "dtype": { "type": "DT_FLOAT" }
        }
      },
      {
        "name": "StatefulPartitionedCall/efficientnetv2-s/blocks_15/se/conv2d_1/Conv2D/ReadVariableOp",
        "op": "Const",
        "attr": {
          "value": {
            "tensor": {
              "dtype": "DT_FLOAT",
              "tensorShape": {
                "dim": [{ "size": "1" }, { "size": "1" }, { "size": "32" }, { "size": "512" }]
              }
            }
          },
          "dtype": { "type": "DT_FLOAT" }
        }
      },
      {
        "name": "StatefulPartitionedCall/efficientnetv2-s/blocks_15/se/conv2d_1/BiasAdd/ReadVariableOp",
        "op": "Const",
        "attr": {
          "value": {
            "tensor": { "dtype": "DT_FLOAT", "tensorShape": { "dim": [{ "size": "512" }] } }
          },
          "dtype": { "type": "DT_FLOAT" }
        }
      },
      {
        "name": "StatefulPartitionedCall/efficientnetv2-s/blocks_14/se/Mean/reduction_indices",
        "op": "Const",
        "attr": {
          "value": {
            "tensor": { "dtype": "DT_INT32", "tensorShape": { "dim": [{ "size": "2" }] } }
          },
          "dtype": { "type": "DT_INT32" }
        }
      },
      {
        "name": "StatefulPartitionedCall/efficientnetv2-s/blocks_14/se/conv2d/Conv2D/ReadVariableOp",
        "op": "Const",
        "attr": {
          "value": {
            "tensor": {
              "dtype": "DT_FLOAT",
              "tensorShape": {
                "dim": [{ "size": "1" }, { "size": "1" }, { "size": "512" }, { "size": "32" }]
              }
            }
          },
          "dtype": { "type": "DT_FLOAT" }
        }
      },
      {
        "name": "StatefulPartitionedCall/efficientnetv2-s/blocks_14/se/conv2d/BiasAdd/ReadVariableOp",
        "op": "Const",
        "attr": {
          "value": {
            "tensor": { "dtype": "DT_FLOAT", "tensorShape": { "dim": [{ "size": "32" }] } }
          },
          "dtype": { "type": "DT_FLOAT" }
        }
      },
      {
        "name": "StatefulPartitionedCall/efficientnetv2-s/blocks_14/se/conv2d_1/Conv2D/ReadVariableOp",
        "op": "Const",
        "attr": {
          "value": {
            "tensor": {
              "dtype": "DT_FLOAT",
              "tensorShape": {
                "dim": [{ "size": "1" }, { "size": "1" }, { "size": "32" }, { "size": "512" }]
              }
            }
          },
          "dtype": { "type": "DT_FLOAT" }
        }
      },
      {
        "name": "StatefulPartitionedCall/efficientnetv2-s/blocks_14/se/conv2d_1/BiasAdd/ReadVariableOp",
        "op": "Const",
        "attr": {
          "value": {
            "tensor": { "dtype": "DT_FLOAT", "tensorShape": { "dim": [{ "size": "512" }] } }
          },
          "dtype": { "type": "DT_FLOAT" }
        }
      },
      {
        "name": "StatefulPartitionedCall/efficientnetv2-s/blocks_13/se/Mean/reduction_indices",
        "op": "Const",
        "attr": {
          "value": {
            "tensor": { "dtype": "DT_INT32", "tensorShape": { "dim": [{ "size": "2" }] } }
          },
          "dtype": { "type": "DT_INT32" }
        }
      },
      {
        "name": "StatefulPartitionedCall/efficientnetv2-s/blocks_13/se/conv2d/Conv2D/ReadVariableOp",
        "op": "Const",
        "attr": {
          "value": {
            "tensor": {
              "dtype": "DT_FLOAT",
              "tensorShape": {
                "dim": [{ "size": "1" }, { "size": "1" }, { "size": "512" }, { "size": "32" }]
              }
            }
          },
          "dtype": { "type": "DT_FLOAT" }
        }
      },
      {
        "name": "StatefulPartitionedCall/efficientnetv2-s/blocks_13/se/conv2d/BiasAdd/ReadVariableOp",
        "op": "Const",
        "attr": {
          "value": {
            "tensor": { "dtype": "DT_FLOAT", "tensorShape": { "dim": [{ "size": "32" }] } }
          },
          "dtype": { "type": "DT_FLOAT" }
        }
      },
      {
        "name": "StatefulPartitionedCall/efficientnetv2-s/blocks_13/se/conv2d_1/Conv2D/ReadVariableOp",
        "op": "Const",
        "attr": {
          "value": {
            "tensor": {
              "dtype": "DT_FLOAT",
              "tensorShape": {
                "dim": [{ "size": "1" }, { "size": "1" }, { "size": "32" }, { "size": "512" }]
              }
            }
          },
          "dtype": { "type": "DT_FLOAT" }
        }
      },
      {
        "name": "StatefulPartitionedCall/efficientnetv2-s/blocks_13/se/conv2d_1/BiasAdd/ReadVariableOp",
        "op": "Const",
        "attr": {
          "value": {
            "tensor": { "dtype": "DT_FLOAT", "tensorShape": { "dim": [{ "size": "512" }] } }
          },
          "dtype": { "type": "DT_FLOAT" }
        }
      },
      {
        "name": "StatefulPartitionedCall/efficientnetv2-s/blocks_12/se/Mean/reduction_indices",
        "op": "Const",
        "attr": {
          "value": {
            "tensor": { "dtype": "DT_INT32", "tensorShape": { "dim": [{ "size": "2" }] } }
          },
          "dtype": { "type": "DT_INT32" }
        }
      },
      {
        "name": "StatefulPartitionedCall/efficientnetv2-s/blocks_12/se/conv2d/Conv2D/ReadVariableOp",
        "op": "Const",
        "attr": {
          "value": {
            "tensor": {
              "dtype": "DT_FLOAT",
              "tensorShape": {
                "dim": [{ "size": "1" }, { "size": "1" }, { "size": "512" }, { "size": "32" }]
              }
            }
          },
          "dtype": { "type": "DT_FLOAT" }
        }
      },
      {
        "name": "StatefulPartitionedCall/efficientnetv2-s/blocks_12/se/conv2d/BiasAdd/ReadVariableOp",
        "op": "Const",
        "attr": {
          "value": {
            "tensor": { "dtype": "DT_FLOAT", "tensorShape": { "dim": [{ "size": "32" }] } }
          },
          "dtype": { "type": "DT_FLOAT" }
        }
      },
      {
        "name": "StatefulPartitionedCall/efficientnetv2-s/blocks_12/se/conv2d_1/Conv2D/ReadVariableOp",
        "op": "Const",
        "attr": {
          "value": {
            "tensor": {
              "dtype": "DT_FLOAT",
              "tensorShape": {
                "dim": [{ "size": "1" }, { "size": "1" }, { "size": "32" }, { "size": "512" }]
              }
            }
          },
          "dtype": { "type": "DT_FLOAT" }
        }
      },
      {
        "name": "StatefulPartitionedCall/efficientnetv2-s/blocks_12/se/conv2d_1/BiasAdd/ReadVariableOp",
        "op": "Const",
        "attr": {
          "value": {
            "tensor": { "dtype": "DT_FLOAT", "tensorShape": { "dim": [{ "size": "512" }] } }
          },
          "dtype": { "type": "DT_FLOAT" }
        }
      },
      {
        "name": "StatefulPartitionedCall/efficientnetv2-s/blocks_11/se/Mean/reduction_indices",
        "op": "Const",
        "attr": {
          "value": {
            "tensor": { "dtype": "DT_INT32", "tensorShape": { "dim": [{ "size": "2" }] } }
          },
          "dtype": { "type": "DT_INT32" }
        }
      },
      {
        "name": "StatefulPartitionedCall/efficientnetv2-s/blocks_11/se/conv2d/Conv2D/ReadVariableOp",
        "op": "Const",
        "attr": {
          "value": {
            "tensor": {
              "dtype": "DT_FLOAT",
              "tensorShape": {
                "dim": [{ "size": "1" }, { "size": "1" }, { "size": "512" }, { "size": "32" }]
              }
            }
          },
          "dtype": { "type": "DT_FLOAT" }
        }
      },
      {
        "name": "StatefulPartitionedCall/efficientnetv2-s/blocks_11/se/conv2d/BiasAdd/ReadVariableOp",
        "op": "Const",
        "attr": {
          "value": {
            "tensor": { "dtype": "DT_FLOAT", "tensorShape": { "dim": [{ "size": "32" }] } }
          },
          "dtype": { "type": "DT_FLOAT" }
        }
      },
      {
        "name": "StatefulPartitionedCall/efficientnetv2-s/blocks_11/se/conv2d_1/Conv2D/ReadVariableOp",
        "op": "Const",
        "attr": {
          "value": {
            "tensor": {
              "dtype": "DT_FLOAT",
              "tensorShape": {
                "dim": [{ "size": "1" }, { "size": "1" }, { "size": "32" }, { "size": "512" }]
              }
            }
          },
          "dtype": { "type": "DT_FLOAT" }
        }
      },
      {
        "name": "StatefulPartitionedCall/efficientnetv2-s/blocks_11/se/conv2d_1/BiasAdd/ReadVariableOp",
        "op": "Const",
        "attr": {
          "value": {
            "tensor": { "dtype": "DT_FLOAT", "tensorShape": { "dim": [{ "size": "512" }] } }
          },
          "dtype": { "type": "DT_FLOAT" }
        }
      },
      {
        "name": "StatefulPartitionedCall/efficientnetv2-s/blocks_10/se/Mean/reduction_indices",
        "op": "Const",
        "attr": {
          "value": {
            "tensor": { "dtype": "DT_INT32", "tensorShape": { "dim": [{ "size": "2" }] } }
          },
          "dtype": { "type": "DT_INT32" }
        }
      },
      {
        "name": "StatefulPartitionedCall/efficientnetv2-s/blocks_10/se/conv2d/Conv2D/ReadVariableOp",
        "op": "Const",
        "attr": {
          "value": {
            "tensor": {
              "dtype": "DT_FLOAT",
              "tensorShape": {
                "dim": [{ "size": "1" }, { "size": "1" }, { "size": "256" }, { "size": "16" }]
              }
            }
          },
          "dtype": { "type": "DT_FLOAT" }
        }
      },
      {
        "name": "StatefulPartitionedCall/efficientnetv2-s/blocks_10/se/conv2d/BiasAdd/ReadVariableOp",
        "op": "Const",
        "attr": {
          "value": {
            "tensor": { "dtype": "DT_FLOAT", "tensorShape": { "dim": [{ "size": "16" }] } }
          },
          "dtype": { "type": "DT_FLOAT" }
        }
      },
      {
        "name": "StatefulPartitionedCall/efficientnetv2-s/blocks_10/se/conv2d_1/Conv2D/ReadVariableOp",
        "op": "Const",
        "attr": {
          "value": {
            "tensor": {
              "dtype": "DT_FLOAT",
              "tensorShape": {
                "dim": [{ "size": "1" }, { "size": "1" }, { "size": "16" }, { "size": "256" }]
              }
            }
          },
          "dtype": { "type": "DT_FLOAT" }
        }
      },
      {
        "name": "StatefulPartitionedCall/efficientnetv2-s/blocks_10/se/conv2d_1/BiasAdd/ReadVariableOp",
        "op": "Const",
        "attr": {
          "value": {
            "tensor": { "dtype": "DT_FLOAT", "tensorShape": { "dim": [{ "size": "256" }] } }
          },
          "dtype": { "type": "DT_FLOAT" }
        }
      },
      {
        "name": "StatefulPartitionedCall/efficientnetv2-s/head/global_average_pooling2d/Mean/reduction_indices",
        "op": "Const",
        "attr": {
          "value": {
            "tensor": { "dtype": "DT_INT32", "tensorShape": { "dim": [{ "size": "2" }] } }
          },
          "dtype": { "type": "DT_INT32" }
        }
      },
      {
        "name": "StatefulPartitionedCall/efficientnetv2-s/head/dense/MatMul/ReadVariableOp",
        "op": "Const",
        "attr": {
          "value": {
            "tensor": {
              "dtype": "DT_FLOAT",
              "tensorShape": { "dim": [{ "size": "1280" }, { "size": "1000" }] }
            }
          },
          "dtype": { "type": "DT_FLOAT" }
        }
      },
      {
        "name": "StatefulPartitionedCall/efficientnetv2-s/head/dense/BiasAdd/ReadVariableOp",
        "op": "Const",
        "attr": {
          "value": {
            "tensor": { "dtype": "DT_FLOAT", "tensorShape": { "dim": [{ "size": "1000" }] } }
          },
          "dtype": { "type": "DT_FLOAT" }
        }
      },
      {
        "name": "input_1",
        "op": "Placeholder",
        "attr": {
          "shape": {
            "shape": {
              "dim": [{ "size": "-1" }, { "size": "-1" }, { "size": "-1" }, { "size": "3" }]
            }
          },
          "dtype": { "type": "DT_FLOAT" }
        }
      },
      {
        "name": "StatefulPartitionedCall/efficientnetv2-s/stem/conv2d/Conv2D_weights",
        "op": "Const",
        "attr": {
          "value": {
            "tensor": {
              "dtype": "DT_FLOAT",
              "tensorShape": {
                "dim": [{ "size": "3" }, { "size": "3" }, { "size": "3" }, { "size": "24" }]
              }
            }
          },
          "dtype": { "type": "DT_FLOAT" }
        }
      },
      {
        "name": "StatefulPartitionedCall/efficientnetv2-s/stem/conv2d/Conv2D_bn_offset",
        "op": "Const",
        "attr": {
          "value": {
            "tensor": { "dtype": "DT_FLOAT", "tensorShape": { "dim": [{ "size": "24" }] } }
          },
          "dtype": { "type": "DT_FLOAT" }
        }
      },
      {
        "name": "StatefulPartitionedCall/efficientnetv2-s/blocks_0/conv2d/Conv2D_weights",
        "op": "Const",
        "attr": {
          "value": {
            "tensor": {
              "dtype": "DT_FLOAT",
              "tensorShape": {
                "dim": [{ "size": "3" }, { "size": "3" }, { "size": "24" }, { "size": "24" }]
              }
            }
          },
          "dtype": { "type": "DT_FLOAT" }
        }
      },
      {
        "name": "StatefulPartitionedCall/efficientnetv2-s/blocks_35/conv2d/Conv2D_weights",
        "op": "Const",
        "attr": {
          "value": {
            "tensor": {
              "dtype": "DT_FLOAT",
              "tensorShape": {
                "dim": [{ "size": "1" }, { "size": "1" }, { "size": "256" }, { "size": "1536" }]
              }
            }
          },
          "dtype": { "type": "DT_FLOAT" }
        }
      },
      {
        "name": "StatefulPartitionedCall/efficientnetv2-s/blocks_0/conv2d/Conv2D_bn_offset",
        "op": "Const",
        "attr": {
          "value": {
            "tensor": { "dtype": "DT_FLOAT", "tensorShape": { "dim": [{ "size": "24" }] } }
          },
          "dtype": { "type": "DT_FLOAT" }
        }
      },
      {
        "name": "StatefulPartitionedCall/efficientnetv2-s/blocks_1/conv2d/Conv2D_weights",
        "op": "Const",
        "attr": {
          "value": {
            "tensor": {
              "dtype": "DT_FLOAT",
              "tensorShape": {
                "dim": [{ "size": "3" }, { "size": "3" }, { "size": "24" }, { "size": "24" }]
              }
            }
          },
          "dtype": { "type": "DT_FLOAT" }
        }
      },
      {
        "name": "StatefulPartitionedCall/efficientnetv2-s/blocks_1/conv2d/Conv2D_bn_offset",
        "op": "Const",
        "attr": {
          "value": {
            "tensor": { "dtype": "DT_FLOAT", "tensorShape": { "dim": [{ "size": "24" }] } }
          },
          "dtype": { "type": "DT_FLOAT" }
        }
      },
      {
        "name": "StatefulPartitionedCall/efficientnetv2-s/blocks_2/conv2d/Conv2D_weights",
        "op": "Const",
        "attr": {
          "value": {
            "tensor": {
              "dtype": "DT_FLOAT",
              "tensorShape": {
                "dim": [{ "size": "3" }, { "size": "3" }, { "size": "24" }, { "size": "96" }]
              }
            }
          },
          "dtype": { "type": "DT_FLOAT" }
        }
      },
      {
        "name": "StatefulPartitionedCall/efficientnetv2-s/blocks_35/conv2d/Conv2D_bn_offset",
        "op": "Const",
        "attr": {
          "value": {
            "tensor": { "dtype": "DT_FLOAT", "tensorShape": { "dim": [{ "size": "1536" }] } }
          },
          "dtype": { "type": "DT_FLOAT" }
        }
      },
      {
        "name": "StatefulPartitionedCall/efficientnetv2-s/blocks_2/conv2d/Conv2D_bn_offset",
        "op": "Const",
        "attr": {
          "value": {
            "tensor": { "dtype": "DT_FLOAT", "tensorShape": { "dim": [{ "size": "96" }] } }
          },
          "dtype": { "type": "DT_FLOAT" }
        }
      },
      {
        "name": "StatefulPartitionedCall/efficientnetv2-s/blocks_2/conv2d_1/Conv2D_weights",
        "op": "Const",
        "attr": {
          "value": {
            "tensor": {
              "dtype": "DT_FLOAT",
              "tensorShape": {
                "dim": [{ "size": "1" }, { "size": "1" }, { "size": "96" }, { "size": "48" }]
              }
            }
          },
          "dtype": { "type": "DT_FLOAT" }
        }
      },
      {
        "name": "StatefulPartitionedCall/efficientnetv2-s/blocks_2/conv2d_1/Conv2D_bn_offset",
        "op": "Const",
        "attr": {
          "value": {
            "tensor": { "dtype": "DT_FLOAT", "tensorShape": { "dim": [{ "size": "48" }] } }
          },
          "dtype": { "type": "DT_FLOAT" }
        }
      },
      {
        "name": "StatefulPartitionedCall/efficientnetv2-s/blocks_3/conv2d/Conv2D_weights",
        "op": "Const",
        "attr": {
          "value": {
            "tensor": {
              "dtype": "DT_FLOAT",
              "tensorShape": {
                "dim": [{ "size": "3" }, { "size": "3" }, { "size": "48" }, { "size": "192" }]
              }
            }
          },
          "dtype": { "type": "DT_FLOAT" }
        }
      },
      {
        "name": "StatefulPartitionedCall/efficientnetv2-s/blocks_3/conv2d/Conv2D_bn_offset",
        "op": "Const",
        "attr": {
          "value": {
            "tensor": { "dtype": "DT_FLOAT", "tensorShape": { "dim": [{ "size": "192" }] } }
          },
          "dtype": { "type": "DT_FLOAT" }
        }
      },
      {
        "name": "StatefulPartitionedCall/efficientnetv2-s/blocks_3/conv2d_1/Conv2D_weights",
        "op": "Const",
        "attr": {
          "value": {
            "tensor": {
              "dtype": "DT_FLOAT",
              "tensorShape": {
                "dim": [{ "size": "1" }, { "size": "1" }, { "size": "192" }, { "size": "48" }]
              }
            }
          },
          "dtype": { "type": "DT_FLOAT" }
        }
      },
      {
        "name": "StatefulPartitionedCall/efficientnetv2-s/blocks_3/conv2d_1/Conv2D_bn_offset",
        "op": "Const",
        "attr": {
          "value": {
            "tensor": { "dtype": "DT_FLOAT", "tensorShape": { "dim": [{ "size": "48" }] } }
          },
          "dtype": { "type": "DT_FLOAT" }
        }
      },
      {
        "name": "StatefulPartitionedCall/efficientnetv2-s/blocks_4/conv2d/Conv2D_weights",
        "op": "Const",
        "attr": {
          "value": {
            "tensor": {
              "dtype": "DT_FLOAT",
              "tensorShape": {
                "dim": [{ "size": "3" }, { "size": "3" }, { "size": "48" }, { "size": "192" }]
              }
            }
          },
          "dtype": { "type": "DT_FLOAT" }
        }
      },
      {
        "name": "StatefulPartitionedCall/efficientnetv2-s/blocks_35/depthwise_conv2d/depthwise_weights",
        "op": "Const",
        "attr": {
          "value": {
            "tensor": {
              "dtype": "DT_FLOAT",
              "tensorShape": {
                "dim": [{ "size": "3" }, { "size": "3" }, { "size": "1536" }, { "size": "1" }]
              }
            }
          },
          "dtype": { "type": "DT_FLOAT" }
        }
      },
      {
        "name": "StatefulPartitionedCall/efficientnetv2-s/blocks_4/conv2d/Conv2D_bn_offset",
        "op": "Const",
        "attr": {
          "value": {
            "tensor": { "dtype": "DT_FLOAT", "tensorShape": { "dim": [{ "size": "192" }] } }
          },
          "dtype": { "type": "DT_FLOAT" }
        }
      },
      {
        "name": "StatefulPartitionedCall/efficientnetv2-s/blocks_4/conv2d_1/Conv2D_weights",
        "op": "Const",
        "attr": {
          "value": {
            "tensor": {
              "dtype": "DT_FLOAT",
              "tensorShape": {
                "dim": [{ "size": "1" }, { "size": "1" }, { "size": "192" }, { "size": "48" }]
              }
            }
          },
          "dtype": { "type": "DT_FLOAT" }
        }
      },
      {
        "name": "StatefulPartitionedCall/efficientnetv2-s/blocks_4/conv2d_1/Conv2D_bn_offset",
        "op": "Const",
        "attr": {
          "value": {
            "tensor": { "dtype": "DT_FLOAT", "tensorShape": { "dim": [{ "size": "48" }] } }
          },
          "dtype": { "type": "DT_FLOAT" }
        }
      },
      {
        "name": "StatefulPartitionedCall/efficientnetv2-s/blocks_5/conv2d/Conv2D_weights",
        "op": "Const",
        "attr": {
          "value": {
            "tensor": {
              "dtype": "DT_FLOAT",
              "tensorShape": {
                "dim": [{ "size": "3" }, { "size": "3" }, { "size": "48" }, { "size": "192" }]
              }
            }
          },
          "dtype": { "type": "DT_FLOAT" }
        }
      },
      {
        "name": "StatefulPartitionedCall/efficientnetv2-s/blocks_35/depthwise_conv2d/depthwise_bn_offset",
        "op": "Const",
        "attr": {
          "value": {
            "tensor": { "dtype": "DT_FLOAT", "tensorShape": { "dim": [{ "size": "1536" }] } }
          },
          "dtype": { "type": "DT_FLOAT" }
        }
      },
      {
        "name": "StatefulPartitionedCall/efficientnetv2-s/blocks_5/conv2d/Conv2D_bn_offset",
        "op": "Const",
        "attr": {
          "value": {
            "tensor": { "dtype": "DT_FLOAT", "tensorShape": { "dim": [{ "size": "192" }] } }
          },
          "dtype": { "type": "DT_FLOAT" }
        }
      },
      {
        "name": "StatefulPartitionedCall/efficientnetv2-s/blocks_5/conv2d_1/Conv2D_weights",
        "op": "Const",
        "attr": {
          "value": {
            "tensor": {
              "dtype": "DT_FLOAT",
              "tensorShape": {
                "dim": [{ "size": "1" }, { "size": "1" }, { "size": "192" }, { "size": "48" }]
              }
            }
          },
          "dtype": { "type": "DT_FLOAT" }
        }
      },
      {
        "name": "StatefulPartitionedCall/efficientnetv2-s/blocks_5/conv2d_1/Conv2D_bn_offset",
        "op": "Const",
        "attr": {
          "value": {
            "tensor": { "dtype": "DT_FLOAT", "tensorShape": { "dim": [{ "size": "48" }] } }
          },
          "dtype": { "type": "DT_FLOAT" }
        }
      },
      {
        "name": "StatefulPartitionedCall/efficientnetv2-s/blocks_6/conv2d/Conv2D_weights",
        "op": "Const",
        "attr": {
          "value": {
            "tensor": {
              "dtype": "DT_FLOAT",
              "tensorShape": {
                "dim": [{ "size": "3" }, { "size": "3" }, { "size": "48" }, { "size": "192" }]
              }
            }
          },
          "dtype": { "type": "DT_FLOAT" }
        }
      },
      {
        "name": "StatefulPartitionedCall/efficientnetv2-s/blocks_6/conv2d/Conv2D_bn_offset",
        "op": "Const",
        "attr": {
          "value": {
            "tensor": { "dtype": "DT_FLOAT", "tensorShape": { "dim": [{ "size": "192" }] } }
          },
          "dtype": { "type": "DT_FLOAT" }
        }
      },
      {
        "name": "StatefulPartitionedCall/efficientnetv2-s/blocks_6/conv2d_1/Conv2D_weights",
        "op": "Const",
        "attr": {
          "value": {
            "tensor": {
              "dtype": "DT_FLOAT",
              "tensorShape": {
                "dim": [{ "size": "1" }, { "size": "1" }, { "size": "192" }, { "size": "64" }]
              }
            }
          },
          "dtype": { "type": "DT_FLOAT" }
        }
      },
      {
        "name": "StatefulPartitionedCall/efficientnetv2-s/blocks_6/conv2d_1/Conv2D_bn_offset",
        "op": "Const",
        "attr": {
          "value": {
            "tensor": { "dtype": "DT_FLOAT", "tensorShape": { "dim": [{ "size": "64" }] } }
          },
          "dtype": { "type": "DT_FLOAT" }
        }
      },
      {
        "name": "StatefulPartitionedCall/efficientnetv2-s/blocks_7/conv2d/Conv2D_weights",
        "op": "Const",
        "attr": {
          "value": {
            "tensor": {
              "dtype": "DT_FLOAT",
              "tensorShape": {
                "dim": [{ "size": "3" }, { "size": "3" }, { "size": "64" }, { "size": "256" }]
              }
            }
          },
          "dtype": { "type": "DT_FLOAT" }
        }
      },
      {
        "name": "StatefulPartitionedCall/efficientnetv2-s/blocks_7/conv2d/Conv2D_bn_offset",
        "op": "Const",
        "attr": {
          "value": {
            "tensor": { "dtype": "DT_FLOAT", "tensorShape": { "dim": [{ "size": "256" }] } }
          },
          "dtype": { "type": "DT_FLOAT" }
        }
      },
      {
        "name": "StatefulPartitionedCall/efficientnetv2-s/blocks_7/conv2d_1/Conv2D_weights",
        "op": "Const",
        "attr": {
          "value": {
            "tensor": {
              "dtype": "DT_FLOAT",
              "tensorShape": {
                "dim": [{ "size": "1" }, { "size": "1" }, { "size": "256" }, { "size": "64" }]
              }
            }
          },
          "dtype": { "type": "DT_FLOAT" }
        }
      },
      {
        "name": "StatefulPartitionedCall/efficientnetv2-s/blocks_7/conv2d_1/Conv2D_bn_offset",
        "op": "Const",
        "attr": {
          "value": {
            "tensor": { "dtype": "DT_FLOAT", "tensorShape": { "dim": [{ "size": "64" }] } }
          },
          "dtype": { "type": "DT_FLOAT" }
        }
      },
      {
        "name": "StatefulPartitionedCall/efficientnetv2-s/blocks_8/conv2d/Conv2D_weights",
        "op": "Const",
        "attr": {
          "value": {
            "tensor": {
              "dtype": "DT_FLOAT",
              "tensorShape": {
                "dim": [{ "size": "3" }, { "size": "3" }, { "size": "64" }, { "size": "256" }]
              }
            }
          },
          "dtype": { "type": "DT_FLOAT" }
        }
      },
      {
        "name": "StatefulPartitionedCall/efficientnetv2-s/blocks_8/conv2d/Conv2D_bn_offset",
        "op": "Const",
        "attr": {
          "value": {
            "tensor": { "dtype": "DT_FLOAT", "tensorShape": { "dim": [{ "size": "256" }] } }
          },
          "dtype": { "type": "DT_FLOAT" }
        }
      },
      {
        "name": "StatefulPartitionedCall/efficientnetv2-s/blocks_8/conv2d_1/Conv2D_weights",
        "op": "Const",
        "attr": {
          "value": {
            "tensor": {
              "dtype": "DT_FLOAT",
              "tensorShape": {
                "dim": [{ "size": "1" }, { "size": "1" }, { "size": "256" }, { "size": "64" }]
              }
            }
          },
          "dtype": { "type": "DT_FLOAT" }
        }
      },
      {
        "name": "StatefulPartitionedCall/efficientnetv2-s/blocks_8/conv2d_1/Conv2D_bn_offset",
        "op": "Const",
        "attr": {
          "value": {
            "tensor": { "dtype": "DT_FLOAT", "tensorShape": { "dim": [{ "size": "64" }] } }
          },
          "dtype": { "type": "DT_FLOAT" }
        }
      },
      {
        "name": "StatefulPartitionedCall/efficientnetv2-s/blocks_9/conv2d/Conv2D_weights",
        "op": "Const",
        "attr": {
          "value": {
            "tensor": {
              "dtype": "DT_FLOAT",
              "tensorShape": {
                "dim": [{ "size": "3" }, { "size": "3" }, { "size": "64" }, { "size": "256" }]
              }
            }
          },
          "dtype": { "type": "DT_FLOAT" }
        }
      },
      {
        "name": "StatefulPartitionedCall/efficientnetv2-s/blocks_9/conv2d/Conv2D_bn_offset",
        "op": "Const",
        "attr": {
          "value": {
            "tensor": { "dtype": "DT_FLOAT", "tensorShape": { "dim": [{ "size": "256" }] } }
          },
          "dtype": { "type": "DT_FLOAT" }
        }
      },
      {
        "name": "StatefulPartitionedCall/efficientnetv2-s/blocks_9/conv2d_1/Conv2D_weights",
        "op": "Const",
        "attr": {
          "value": {
            "tensor": {
              "dtype": "DT_FLOAT",
              "tensorShape": {
                "dim": [{ "size": "1" }, { "size": "1" }, { "size": "256" }, { "size": "64" }]
              }
            }
          },
          "dtype": { "type": "DT_FLOAT" }
        }
      },
      {
        "name": "StatefulPartitionedCall/efficientnetv2-s/blocks_9/conv2d_1/Conv2D_bn_offset",
        "op": "Const",
        "attr": {
          "value": {
            "tensor": { "dtype": "DT_FLOAT", "tensorShape": { "dim": [{ "size": "64" }] } }
          },
          "dtype": { "type": "DT_FLOAT" }
        }
      },
      {
        "name": "StatefulPartitionedCall/efficientnetv2-s/blocks_10/conv2d/Conv2D_weights",
        "op": "Const",
        "attr": {
          "value": {
            "tensor": {
              "dtype": "DT_FLOAT",
              "tensorShape": {
                "dim": [{ "size": "1" }, { "size": "1" }, { "size": "64" }, { "size": "256" }]
              }
            }
          },
          "dtype": { "type": "DT_FLOAT" }
        }
      },
      {
        "name": "StatefulPartitionedCall/efficientnetv2-s/blocks_10/conv2d/Conv2D_bn_offset",
        "op": "Const",
        "attr": {
          "value": {
            "tensor": { "dtype": "DT_FLOAT", "tensorShape": { "dim": [{ "size": "256" }] } }
          },
          "dtype": { "type": "DT_FLOAT" }
        }
      },
      {
        "name": "StatefulPartitionedCall/efficientnetv2-s/blocks_10/depthwise_conv2d/depthwise_weights",
        "op": "Const",
        "attr": {
          "value": {
            "tensor": {
              "dtype": "DT_FLOAT",
              "tensorShape": {
                "dim": [{ "size": "3" }, { "size": "3" }, { "size": "256" }, { "size": "1" }]
              }
            }
          },
          "dtype": { "type": "DT_FLOAT" }
        }
      },
      {
        "name": "StatefulPartitionedCall/efficientnetv2-s/blocks_10/depthwise_conv2d/depthwise_bn_offset",
        "op": "Const",
        "attr": {
          "value": {
            "tensor": { "dtype": "DT_FLOAT", "tensorShape": { "dim": [{ "size": "256" }] } }
          },
          "dtype": { "type": "DT_FLOAT" }
        }
      },
      {
        "name": "StatefulPartitionedCall/efficientnetv2-s/blocks_10/conv2d_1/Conv2D_weights",
        "op": "Const",
        "attr": {
          "value": {
            "tensor": {
              "dtype": "DT_FLOAT",
              "tensorShape": {
                "dim": [{ "size": "1" }, { "size": "1" }, { "size": "256" }, { "size": "128" }]
              }
            }
          },
          "dtype": { "type": "DT_FLOAT" }
        }
      },
      {
        "name": "StatefulPartitionedCall/efficientnetv2-s/blocks_35/conv2d_1/Conv2D_weights",
        "op": "Const",
        "attr": {
          "value": {
            "tensor": {
              "dtype": "DT_FLOAT",
              "tensorShape": {
                "dim": [{ "size": "1" }, { "size": "1" }, { "size": "1536" }, { "size": "256" }]
              }
            }
          },
          "dtype": { "type": "DT_FLOAT" }
        }
      },
      {
        "name": "StatefulPartitionedCall/efficientnetv2-s/blocks_10/conv2d_1/Conv2D_bn_offset",
        "op": "Const",
        "attr": {
          "value": {
            "tensor": { "dtype": "DT_FLOAT", "tensorShape": { "dim": [{ "size": "128" }] } }
          },
          "dtype": { "type": "DT_FLOAT" }
        }
      },
      {
        "name": "StatefulPartitionedCall/efficientnetv2-s/blocks_11/conv2d/Conv2D_weights",
        "op": "Const",
        "attr": {
          "value": {
            "tensor": {
              "dtype": "DT_FLOAT",
              "tensorShape": {
                "dim": [{ "size": "1" }, { "size": "1" }, { "size": "128" }, { "size": "512" }]
              }
            }
          },
          "dtype": { "type": "DT_FLOAT" }
        }
      },
      {
        "name": "StatefulPartitionedCall/efficientnetv2-s/blocks_11/conv2d/Conv2D_bn_offset",
        "op": "Const",
        "attr": {
          "value": {
            "tensor": { "dtype": "DT_FLOAT", "tensorShape": { "dim": [{ "size": "512" }] } }
          },
          "dtype": { "type": "DT_FLOAT" }
        }
      },
      {
        "name": "StatefulPartitionedCall/efficientnetv2-s/blocks_11/depthwise_conv2d/depthwise_weights",
        "op": "Const",
        "attr": {
          "value": {
            "tensor": {
              "dtype": "DT_FLOAT",
              "tensorShape": {
                "dim": [{ "size": "3" }, { "size": "3" }, { "size": "512" }, { "size": "1" }]
              }
            }
          },
          "dtype": { "type": "DT_FLOAT" }
        }
      },
      {
        "name": "StatefulPartitionedCall/efficientnetv2-s/blocks_11/depthwise_conv2d/depthwise_bn_offset",
        "op": "Const",
        "attr": {
          "value": {
            "tensor": { "dtype": "DT_FLOAT", "tensorShape": { "dim": [{ "size": "512" }] } }
          },
          "dtype": { "type": "DT_FLOAT" }
        }
      },
      {
        "name": "StatefulPartitionedCall/efficientnetv2-s/blocks_35/conv2d_1/Conv2D_bn_offset",
        "op": "Const",
        "attr": {
          "value": {
            "tensor": { "dtype": "DT_FLOAT", "tensorShape": { "dim": [{ "size": "256" }] } }
          },
          "dtype": { "type": "DT_FLOAT" }
        }
      },
      {
        "name": "StatefulPartitionedCall/efficientnetv2-s/blocks_11/conv2d_1/Conv2D_weights",
        "op": "Const",
        "attr": {
          "value": {
            "tensor": {
              "dtype": "DT_FLOAT",
              "tensorShape": {
                "dim": [{ "size": "1" }, { "size": "1" }, { "size": "512" }, { "size": "128" }]
              }
            }
          },
          "dtype": { "type": "DT_FLOAT" }
        }
      },
      {
        "name": "StatefulPartitionedCall/efficientnetv2-s/blocks_11/conv2d_1/Conv2D_bn_offset",
        "op": "Const",
        "attr": {
          "value": {
            "tensor": { "dtype": "DT_FLOAT", "tensorShape": { "dim": [{ "size": "128" }] } }
          },
          "dtype": { "type": "DT_FLOAT" }
        }
      },
      {
        "name": "StatefulPartitionedCall/efficientnetv2-s/blocks_12/conv2d/Conv2D_weights",
        "op": "Const",
        "attr": {
          "value": {
            "tensor": {
              "dtype": "DT_FLOAT",
              "tensorShape": {
                "dim": [{ "size": "1" }, { "size": "1" }, { "size": "128" }, { "size": "512" }]
              }
            }
          },
          "dtype": { "type": "DT_FLOAT" }
        }
      },
      {
        "name": "StatefulPartitionedCall/efficientnetv2-s/blocks_36/conv2d/Conv2D_weights",
        "op": "Const",
        "attr": {
          "value": {
            "tensor": {
              "dtype": "DT_FLOAT",
              "tensorShape": {
                "dim": [{ "size": "1" }, { "size": "1" }, { "size": "256" }, { "size": "1536" }]
              }
            }
          },
          "dtype": { "type": "DT_FLOAT" }
        }
      },
      {
        "name": "StatefulPartitionedCall/efficientnetv2-s/blocks_12/conv2d/Conv2D_bn_offset",
        "op": "Const",
        "attr": {
          "value": {
            "tensor": { "dtype": "DT_FLOAT", "tensorShape": { "dim": [{ "size": "512" }] } }
          },
          "dtype": { "type": "DT_FLOAT" }
        }
      },
      {
        "name": "StatefulPartitionedCall/efficientnetv2-s/blocks_12/depthwise_conv2d/depthwise_weights",
        "op": "Const",
        "attr": {
          "value": {
            "tensor": {
              "dtype": "DT_FLOAT",
              "tensorShape": {
                "dim": [{ "size": "3" }, { "size": "3" }, { "size": "512" }, { "size": "1" }]
              }
            }
          },
          "dtype": { "type": "DT_FLOAT" }
        }
      },
      {
        "name": "StatefulPartitionedCall/efficientnetv2-s/blocks_12/depthwise_conv2d/depthwise_bn_offset",
        "op": "Const",
        "attr": {
          "value": {
            "tensor": { "dtype": "DT_FLOAT", "tensorShape": { "dim": [{ "size": "512" }] } }
          },
          "dtype": { "type": "DT_FLOAT" }
        }
      },
      {
        "name": "StatefulPartitionedCall/efficientnetv2-s/blocks_36/conv2d/Conv2D_bn_offset",
        "op": "Const",
        "attr": {
          "value": {
            "tensor": { "dtype": "DT_FLOAT", "tensorShape": { "dim": [{ "size": "1536" }] } }
          },
          "dtype": { "type": "DT_FLOAT" }
        }
      },
      {
        "name": "StatefulPartitionedCall/efficientnetv2-s/blocks_12/conv2d_1/Conv2D_weights",
        "op": "Const",
        "attr": {
          "value": {
            "tensor": {
              "dtype": "DT_FLOAT",
              "tensorShape": {
                "dim": [{ "size": "1" }, { "size": "1" }, { "size": "512" }, { "size": "128" }]
              }
            }
          },
          "dtype": { "type": "DT_FLOAT" }
        }
      },
      {
        "name": "StatefulPartitionedCall/efficientnetv2-s/blocks_12/conv2d_1/Conv2D_bn_offset",
        "op": "Const",
        "attr": {
          "value": {
            "tensor": { "dtype": "DT_FLOAT", "tensorShape": { "dim": [{ "size": "128" }] } }
          },
          "dtype": { "type": "DT_FLOAT" }
        }
      },
      {
        "name": "StatefulPartitionedCall/efficientnetv2-s/blocks_13/conv2d/Conv2D_weights",
        "op": "Const",
        "attr": {
          "value": {
            "tensor": {
              "dtype": "DT_FLOAT",
              "tensorShape": {
                "dim": [{ "size": "1" }, { "size": "1" }, { "size": "128" }, { "size": "512" }]
              }
            }
          },
          "dtype": { "type": "DT_FLOAT" }
        }
      },
      {
        "name": "StatefulPartitionedCall/efficientnetv2-s/blocks_13/conv2d/Conv2D_bn_offset",
        "op": "Const",
        "attr": {
          "value": {
            "tensor": { "dtype": "DT_FLOAT", "tensorShape": { "dim": [{ "size": "512" }] } }
          },
          "dtype": { "type": "DT_FLOAT" }
        }
      },
      {
        "name": "StatefulPartitionedCall/efficientnetv2-s/blocks_13/depthwise_conv2d/depthwise_weights",
        "op": "Const",
        "attr": {
          "value": {
            "tensor": {
              "dtype": "DT_FLOAT",
              "tensorShape": {
                "dim": [{ "size": "3" }, { "size": "3" }, { "size": "512" }, { "size": "1" }]
              }
            }
          },
          "dtype": { "type": "DT_FLOAT" }
        }
      },
      {
        "name": "StatefulPartitionedCall/efficientnetv2-s/blocks_13/depthwise_conv2d/depthwise_bn_offset",
        "op": "Const",
        "attr": {
          "value": {
            "tensor": { "dtype": "DT_FLOAT", "tensorShape": { "dim": [{ "size": "512" }] } }
          },
          "dtype": { "type": "DT_FLOAT" }
        }
      },
      {
        "name": "StatefulPartitionedCall/efficientnetv2-s/blocks_36/depthwise_conv2d/depthwise_weights",
        "op": "Const",
        "attr": {
          "value": {
            "tensor": {
              "dtype": "DT_FLOAT",
              "tensorShape": {
                "dim": [{ "size": "3" }, { "size": "3" }, { "size": "1536" }, { "size": "1" }]
              }
            }
          },
          "dtype": { "type": "DT_FLOAT" }
        }
      },
      {
        "name": "StatefulPartitionedCall/efficientnetv2-s/blocks_13/conv2d_1/Conv2D_weights",
        "op": "Const",
        "attr": {
          "value": {
            "tensor": {
              "dtype": "DT_FLOAT",
              "tensorShape": {
                "dim": [{ "size": "1" }, { "size": "1" }, { "size": "512" }, { "size": "128" }]
              }
            }
          },
          "dtype": { "type": "DT_FLOAT" }
        }
      },
      {
        "name": "StatefulPartitionedCall/efficientnetv2-s/blocks_13/conv2d_1/Conv2D_bn_offset",
        "op": "Const",
        "attr": {
          "value": {
            "tensor": { "dtype": "DT_FLOAT", "tensorShape": { "dim": [{ "size": "128" }] } }
          },
          "dtype": { "type": "DT_FLOAT" }
        }
      },
      {
        "name": "StatefulPartitionedCall/efficientnetv2-s/blocks_14/conv2d/Conv2D_weights",
        "op": "Const",
        "attr": {
          "value": {
            "tensor": {
              "dtype": "DT_FLOAT",
              "tensorShape": {
                "dim": [{ "size": "1" }, { "size": "1" }, { "size": "128" }, { "size": "512" }]
              }
            }
          },
          "dtype": { "type": "DT_FLOAT" }
        }
      },
      {
        "name": "StatefulPartitionedCall/efficientnetv2-s/blocks_36/depthwise_conv2d/depthwise_bn_offset",
        "op": "Const",
        "attr": {
          "value": {
            "tensor": { "dtype": "DT_FLOAT", "tensorShape": { "dim": [{ "size": "1536" }] } }
          },
          "dtype": { "type": "DT_FLOAT" }
        }
      },
      {
        "name": "StatefulPartitionedCall/efficientnetv2-s/blocks_14/conv2d/Conv2D_bn_offset",
        "op": "Const",
        "attr": {
          "value": {
            "tensor": { "dtype": "DT_FLOAT", "tensorShape": { "dim": [{ "size": "512" }] } }
          },
          "dtype": { "type": "DT_FLOAT" }
        }
      },
      {
        "name": "StatefulPartitionedCall/efficientnetv2-s/blocks_14/depthwise_conv2d/depthwise_weights",
        "op": "Const",
        "attr": {
          "value": {
            "tensor": {
              "dtype": "DT_FLOAT",
              "tensorShape": {
                "dim": [{ "size": "3" }, { "size": "3" }, { "size": "512" }, { "size": "1" }]
              }
            }
          },
          "dtype": { "type": "DT_FLOAT" }
        }
      },
      {
        "name": "StatefulPartitionedCall/efficientnetv2-s/blocks_14/depthwise_conv2d/depthwise_bn_offset",
        "op": "Const",
        "attr": {
          "value": {
            "tensor": { "dtype": "DT_FLOAT", "tensorShape": { "dim": [{ "size": "512" }] } }
          },
          "dtype": { "type": "DT_FLOAT" }
        }
      },
      {
        "name": "StatefulPartitionedCall/efficientnetv2-s/blocks_14/conv2d_1/Conv2D_weights",
        "op": "Const",
        "attr": {
          "value": {
            "tensor": {
              "dtype": "DT_FLOAT",
              "tensorShape": {
                "dim": [{ "size": "1" }, { "size": "1" }, { "size": "512" }, { "size": "128" }]
              }
            }
          },
          "dtype": { "type": "DT_FLOAT" }
        }
      },
      {
        "name": "StatefulPartitionedCall/efficientnetv2-s/blocks_14/conv2d_1/Conv2D_bn_offset",
        "op": "Const",
        "attr": {
          "value": {
            "tensor": { "dtype": "DT_FLOAT", "tensorShape": { "dim": [{ "size": "128" }] } }
          },
          "dtype": { "type": "DT_FLOAT" }
        }
      },
      {
        "name": "StatefulPartitionedCall/efficientnetv2-s/blocks_15/conv2d/Conv2D_weights",
        "op": "Const",
        "attr": {
          "value": {
            "tensor": {
              "dtype": "DT_FLOAT",
              "tensorShape": {
                "dim": [{ "size": "1" }, { "size": "1" }, { "size": "128" }, { "size": "512" }]
              }
            }
          },
          "dtype": { "type": "DT_FLOAT" }
        }
      },
      {
        "name": "StatefulPartitionedCall/efficientnetv2-s/blocks_15/conv2d/Conv2D_bn_offset",
        "op": "Const",
        "attr": {
          "value": {
            "tensor": { "dtype": "DT_FLOAT", "tensorShape": { "dim": [{ "size": "512" }] } }
          },
          "dtype": { "type": "DT_FLOAT" }
        }
      },
      {
        "name": "StatefulPartitionedCall/efficientnetv2-s/blocks_15/depthwise_conv2d/depthwise_weights",
        "op": "Const",
        "attr": {
          "value": {
            "tensor": {
              "dtype": "DT_FLOAT",
              "tensorShape": {
                "dim": [{ "size": "3" }, { "size": "3" }, { "size": "512" }, { "size": "1" }]
              }
            }
          },
          "dtype": { "type": "DT_FLOAT" }
        }
      },
      {
        "name": "StatefulPartitionedCall/efficientnetv2-s/blocks_15/depthwise_conv2d/depthwise_bn_offset",
        "op": "Const",
        "attr": {
          "value": {
            "tensor": { "dtype": "DT_FLOAT", "tensorShape": { "dim": [{ "size": "512" }] } }
          },
          "dtype": { "type": "DT_FLOAT" }
        }
      },
      {
        "name": "StatefulPartitionedCall/efficientnetv2-s/blocks_15/conv2d_1/Conv2D_weights",
        "op": "Const",
        "attr": {
          "value": {
            "tensor": {
              "dtype": "DT_FLOAT",
              "tensorShape": {
                "dim": [{ "size": "1" }, { "size": "1" }, { "size": "512" }, { "size": "128" }]
              }
            }
          },
          "dtype": { "type": "DT_FLOAT" }
        }
      },
      {
        "name": "StatefulPartitionedCall/efficientnetv2-s/blocks_15/conv2d_1/Conv2D_bn_offset",
        "op": "Const",
        "attr": {
          "value": {
            "tensor": { "dtype": "DT_FLOAT", "tensorShape": { "dim": [{ "size": "128" }] } }
          },
          "dtype": { "type": "DT_FLOAT" }
        }
      },
      {
        "name": "StatefulPartitionedCall/efficientnetv2-s/blocks_16/conv2d/Conv2D_weights",
        "op": "Const",
        "attr": {
          "value": {
            "tensor": {
              "dtype": "DT_FLOAT",
              "tensorShape": {
                "dim": [{ "size": "1" }, { "size": "1" }, { "size": "128" }, { "size": "768" }]
              }
            }
          },
          "dtype": { "type": "DT_FLOAT" }
        }
      },
      {
        "name": "StatefulPartitionedCall/efficientnetv2-s/blocks_16/conv2d/Conv2D_bn_offset",
        "op": "Const",
        "attr": {
          "value": {
            "tensor": { "dtype": "DT_FLOAT", "tensorShape": { "dim": [{ "size": "768" }] } }
          },
          "dtype": { "type": "DT_FLOAT" }
        }
      },
      {
        "name": "StatefulPartitionedCall/efficientnetv2-s/blocks_16/depthwise_conv2d/depthwise_weights",
        "op": "Const",
        "attr": {
          "value": {
            "tensor": {
              "dtype": "DT_FLOAT",
              "tensorShape": {
                "dim": [{ "size": "3" }, { "size": "3" }, { "size": "768" }, { "size": "1" }]
              }
            }
          },
          "dtype": { "type": "DT_FLOAT" }
        }
      },
      {
        "name": "StatefulPartitionedCall/efficientnetv2-s/blocks_16/depthwise_conv2d/depthwise_bn_offset",
        "op": "Const",
        "attr": {
          "value": {
            "tensor": { "dtype": "DT_FLOAT", "tensorShape": { "dim": [{ "size": "768" }] } }
          },
          "dtype": { "type": "DT_FLOAT" }
        }
      },
      {
        "name": "StatefulPartitionedCall/efficientnetv2-s/blocks_16/conv2d_1/Conv2D_weights",
        "op": "Const",
        "attr": {
          "value": {
            "tensor": {
              "dtype": "DT_FLOAT",
              "tensorShape": {
                "dim": [{ "size": "1" }, { "size": "1" }, { "size": "768" }, { "size": "160" }]
              }
            }
          },
          "dtype": { "type": "DT_FLOAT" }
        }
      },
      {
        "name": "StatefulPartitionedCall/efficientnetv2-s/blocks_16/conv2d_1/Conv2D_bn_offset",
        "op": "Const",
        "attr": {
          "value": {
            "tensor": { "dtype": "DT_FLOAT", "tensorShape": { "dim": [{ "size": "160" }] } }
          },
          "dtype": { "type": "DT_FLOAT" }
        }
      },
      {
        "name": "StatefulPartitionedCall/efficientnetv2-s/blocks_17/conv2d/Conv2D_weights",
        "op": "Const",
        "attr": {
          "value": {
            "tensor": {
              "dtype": "DT_FLOAT",
              "tensorShape": {
                "dim": [{ "size": "1" }, { "size": "1" }, { "size": "160" }, { "size": "960" }]
              }
            }
          },
          "dtype": { "type": "DT_FLOAT" }
        }
      },
      {
        "name": "StatefulPartitionedCall/efficientnetv2-s/blocks_17/conv2d/Conv2D_bn_offset",
        "op": "Const",
        "attr": {
          "value": {
            "tensor": { "dtype": "DT_FLOAT", "tensorShape": { "dim": [{ "size": "960" }] } }
          },
          "dtype": { "type": "DT_FLOAT" }
        }
      },
      {
        "name": "StatefulPartitionedCall/efficientnetv2-s/blocks_17/depthwise_conv2d/depthwise_weights",
        "op": "Const",
        "attr": {
          "value": {
            "tensor": {
              "dtype": "DT_FLOAT",
              "tensorShape": {
                "dim": [{ "size": "3" }, { "size": "3" }, { "size": "960" }, { "size": "1" }]
              }
            }
          },
          "dtype": { "type": "DT_FLOAT" }
        }
      },
      {
        "name": "StatefulPartitionedCall/efficientnetv2-s/blocks_17/depthwise_conv2d/depthwise_bn_offset",
        "op": "Const",
        "attr": {
          "value": {
            "tensor": { "dtype": "DT_FLOAT", "tensorShape": { "dim": [{ "size": "960" }] } }
          },
          "dtype": { "type": "DT_FLOAT" }
        }
      },
      {
        "name": "StatefulPartitionedCall/efficientnetv2-s/blocks_36/conv2d_1/Conv2D_weights",
        "op": "Const",
        "attr": {
          "value": {
            "tensor": {
              "dtype": "DT_FLOAT",
              "tensorShape": {
                "dim": [{ "size": "1" }, { "size": "1" }, { "size": "1536" }, { "size": "256" }]
              }
            }
          },
          "dtype": { "type": "DT_FLOAT" }
        }
      },
      {
        "name": "StatefulPartitionedCall/efficientnetv2-s/blocks_39/conv2d_1/Conv2D_weights",
        "op": "Const",
        "attr": {
          "value": {
            "tensor": {
              "dtype": "DT_FLOAT",
              "tensorShape": {
                "dim": [{ "size": "1" }, { "size": "1" }, { "size": "1536" }, { "size": "256" }]
              }
            }
          },
          "dtype": { "type": "DT_FLOAT" }
        }
      },
      {
        "name": "StatefulPartitionedCall/efficientnetv2-s/blocks_17/conv2d_1/Conv2D_weights",
        "op": "Const",
        "attr": {
          "value": {
            "tensor": {
              "dtype": "DT_FLOAT",
              "tensorShape": {
                "dim": [{ "size": "1" }, { "size": "1" }, { "size": "960" }, { "size": "160" }]
              }
            }
          },
          "dtype": { "type": "DT_FLOAT" }
        }
      },
      {
        "name": "StatefulPartitionedCall/efficientnetv2-s/blocks_36/conv2d_1/Conv2D_bn_offset",
        "op": "Const",
        "attr": {
          "value": {
            "tensor": { "dtype": "DT_FLOAT", "tensorShape": { "dim": [{ "size": "256" }] } }
          },
          "dtype": { "type": "DT_FLOAT" }
        }
      },
      {
        "name": "StatefulPartitionedCall/efficientnetv2-s/blocks_17/conv2d_1/Conv2D_bn_offset",
        "op": "Const",
        "attr": {
          "value": {
            "tensor": { "dtype": "DT_FLOAT", "tensorShape": { "dim": [{ "size": "160" }] } }
          },
          "dtype": { "type": "DT_FLOAT" }
        }
      },
      {
        "name": "StatefulPartitionedCall/efficientnetv2-s/blocks_18/conv2d/Conv2D_weights",
        "op": "Const",
        "attr": {
          "value": {
            "tensor": {
              "dtype": "DT_FLOAT",
              "tensorShape": {
                "dim": [{ "size": "1" }, { "size": "1" }, { "size": "160" }, { "size": "960" }]
              }
            }
          },
          "dtype": { "type": "DT_FLOAT" }
        }
      },
      {
        "name": "StatefulPartitionedCall/efficientnetv2-s/blocks_18/conv2d/Conv2D_bn_offset",
        "op": "Const",
        "attr": {
          "value": {
            "tensor": { "dtype": "DT_FLOAT", "tensorShape": { "dim": [{ "size": "960" }] } }
          },
          "dtype": { "type": "DT_FLOAT" }
        }
      },
      {
        "name": "StatefulPartitionedCall/efficientnetv2-s/blocks_18/depthwise_conv2d/depthwise_weights",
        "op": "Const",
        "attr": {
          "value": {
            "tensor": {
              "dtype": "DT_FLOAT",
              "tensorShape": {
                "dim": [{ "size": "3" }, { "size": "3" }, { "size": "960" }, { "size": "1" }]
              }
            }
          },
          "dtype": { "type": "DT_FLOAT" }
        }
      },
      {
        "name": "StatefulPartitionedCall/efficientnetv2-s/blocks_18/depthwise_conv2d/depthwise_bn_offset",
        "op": "Const",
        "attr": {
          "value": {
            "tensor": { "dtype": "DT_FLOAT", "tensorShape": { "dim": [{ "size": "960" }] } }
          },
          "dtype": { "type": "DT_FLOAT" }
        }
      },
      {
        "name": "StatefulPartitionedCall/efficientnetv2-s/blocks_37/conv2d/Conv2D_weights",
        "op": "Const",
        "attr": {
          "value": {
            "tensor": {
              "dtype": "DT_FLOAT",
              "tensorShape": {
                "dim": [{ "size": "1" }, { "size": "1" }, { "size": "256" }, { "size": "1536" }]
              }
            }
          },
          "dtype": { "type": "DT_FLOAT" }
        }
      },
      {
        "name": "StatefulPartitionedCall/efficientnetv2-s/blocks_18/conv2d_1/Conv2D_weights",
        "op": "Const",
        "attr": {
          "value": {
            "tensor": {
              "dtype": "DT_FLOAT",
              "tensorShape": {
                "dim": [{ "size": "1" }, { "size": "1" }, { "size": "960" }, { "size": "160" }]
              }
            }
          },
          "dtype": { "type": "DT_FLOAT" }
        }
      },
      {
        "name": "StatefulPartitionedCall/efficientnetv2-s/blocks_18/conv2d_1/Conv2D_bn_offset",
        "op": "Const",
        "attr": {
          "value": {
            "tensor": { "dtype": "DT_FLOAT", "tensorShape": { "dim": [{ "size": "160" }] } }
          },
          "dtype": { "type": "DT_FLOAT" }
        }
      },
      {
        "name": "StatefulPartitionedCall/efficientnetv2-s/blocks_19/conv2d/Conv2D_weights",
        "op": "Const",
        "attr": {
          "value": {
            "tensor": {
              "dtype": "DT_FLOAT",
              "tensorShape": {
                "dim": [{ "size": "1" }, { "size": "1" }, { "size": "160" }, { "size": "960" }]
              }
            }
          },
          "dtype": { "type": "DT_FLOAT" }
        }
      },
      {
        "name": "StatefulPartitionedCall/efficientnetv2-s/blocks_37/conv2d/Conv2D_bn_offset",
        "op": "Const",
        "attr": {
          "value": {
            "tensor": { "dtype": "DT_FLOAT", "tensorShape": { "dim": [{ "size": "1536" }] } }
          },
          "dtype": { "type": "DT_FLOAT" }
        }
      },
      {
        "name": "StatefulPartitionedCall/efficientnetv2-s/blocks_19/conv2d/Conv2D_bn_offset",
        "op": "Const",
        "attr": {
          "value": {
            "tensor": { "dtype": "DT_FLOAT", "tensorShape": { "dim": [{ "size": "960" }] } }
          },
          "dtype": { "type": "DT_FLOAT" }
        }
      },
      {
        "name": "StatefulPartitionedCall/efficientnetv2-s/blocks_19/depthwise_conv2d/depthwise_weights",
        "op": "Const",
        "attr": {
          "value": {
            "tensor": {
              "dtype": "DT_FLOAT",
              "tensorShape": {
                "dim": [{ "size": "3" }, { "size": "3" }, { "size": "960" }, { "size": "1" }]
              }
            }
          },
          "dtype": { "type": "DT_FLOAT" }
        }
      },
      {
        "name": "StatefulPartitionedCall/efficientnetv2-s/blocks_19/depthwise_conv2d/depthwise_bn_offset",
        "op": "Const",
        "attr": {
          "value": {
            "tensor": { "dtype": "DT_FLOAT", "tensorShape": { "dim": [{ "size": "960" }] } }
          },
          "dtype": { "type": "DT_FLOAT" }
        }
      },
      {
        "name": "StatefulPartitionedCall/efficientnetv2-s/blocks_19/conv2d_1/Conv2D_weights",
        "op": "Const",
        "attr": {
          "value": {
            "tensor": {
              "dtype": "DT_FLOAT",
              "tensorShape": {
                "dim": [{ "size": "1" }, { "size": "1" }, { "size": "960" }, { "size": "160" }]
              }
            }
          },
          "dtype": { "type": "DT_FLOAT" }
        }
      },
      {
        "name": "StatefulPartitionedCall/efficientnetv2-s/blocks_19/conv2d_1/Conv2D_bn_offset",
        "op": "Const",
        "attr": {
          "value": {
            "tensor": { "dtype": "DT_FLOAT", "tensorShape": { "dim": [{ "size": "160" }] } }
          },
          "dtype": { "type": "DT_FLOAT" }
        }
      },
      {
        "name": "StatefulPartitionedCall/efficientnetv2-s/blocks_20/conv2d/Conv2D_weights",
        "op": "Const",
        "attr": {
          "value": {
            "tensor": {
              "dtype": "DT_FLOAT",
              "tensorShape": {
                "dim": [{ "size": "1" }, { "size": "1" }, { "size": "160" }, { "size": "960" }]
              }
            }
          },
          "dtype": { "type": "DT_FLOAT" }
        }
      },
      {
        "name": "StatefulPartitionedCall/efficientnetv2-s/blocks_37/depthwise_conv2d/depthwise_weights",
        "op": "Const",
        "attr": {
          "value": {
            "tensor": {
              "dtype": "DT_FLOAT",
              "tensorShape": {
                "dim": [{ "size": "3" }, { "size": "3" }, { "size": "1536" }, { "size": "1" }]
              }
            }
          },
          "dtype": { "type": "DT_FLOAT" }
        }
      },
      {
        "name": "StatefulPartitionedCall/efficientnetv2-s/blocks_20/conv2d/Conv2D_bn_offset",
        "op": "Const",
        "attr": {
          "value": {
            "tensor": { "dtype": "DT_FLOAT", "tensorShape": { "dim": [{ "size": "960" }] } }
          },
          "dtype": { "type": "DT_FLOAT" }
        }
      },
      {
        "name": "StatefulPartitionedCall/efficientnetv2-s/blocks_20/depthwise_conv2d/depthwise_weights",
        "op": "Const",
        "attr": {
          "value": {
            "tensor": {
              "dtype": "DT_FLOAT",
              "tensorShape": {
                "dim": [{ "size": "3" }, { "size": "3" }, { "size": "960" }, { "size": "1" }]
              }
            }
          },
          "dtype": { "type": "DT_FLOAT" }
        }
      },
      {
        "name": "StatefulPartitionedCall/efficientnetv2-s/blocks_20/depthwise_conv2d/depthwise_bn_offset",
        "op": "Const",
        "attr": {
          "value": {
            "tensor": { "dtype": "DT_FLOAT", "tensorShape": { "dim": [{ "size": "960" }] } }
          },
          "dtype": { "type": "DT_FLOAT" }
        }
      },
      {
        "name": "StatefulPartitionedCall/efficientnetv2-s/blocks_37/depthwise_conv2d/depthwise_bn_offset",
        "op": "Const",
        "attr": {
          "value": {
            "tensor": { "dtype": "DT_FLOAT", "tensorShape": { "dim": [{ "size": "1536" }] } }
          },
          "dtype": { "type": "DT_FLOAT" }
        }
      },
      {
        "name": "StatefulPartitionedCall/efficientnetv2-s/blocks_20/conv2d_1/Conv2D_weights",
        "op": "Const",
        "attr": {
          "value": {
            "tensor": {
              "dtype": "DT_FLOAT",
              "tensorShape": {
                "dim": [{ "size": "1" }, { "size": "1" }, { "size": "960" }, { "size": "160" }]
              }
            }
          },
          "dtype": { "type": "DT_FLOAT" }
        }
      },
      {
        "name": "StatefulPartitionedCall/efficientnetv2-s/blocks_20/conv2d_1/Conv2D_bn_offset",
        "op": "Const",
        "attr": {
          "value": {
            "tensor": { "dtype": "DT_FLOAT", "tensorShape": { "dim": [{ "size": "160" }] } }
          },
          "dtype": { "type": "DT_FLOAT" }
        }
      },
      {
        "name": "StatefulPartitionedCall/efficientnetv2-s/blocks_21/conv2d/Conv2D_weights",
        "op": "Const",
        "attr": {
          "value": {
            "tensor": {
              "dtype": "DT_FLOAT",
              "tensorShape": {
                "dim": [{ "size": "1" }, { "size": "1" }, { "size": "160" }, { "size": "960" }]
              }
            }
          },
          "dtype": { "type": "DT_FLOAT" }
        }
      },
      {
        "name": "StatefulPartitionedCall/efficientnetv2-s/blocks_21/conv2d/Conv2D_bn_offset",
        "op": "Const",
        "attr": {
          "value": {
            "tensor": { "dtype": "DT_FLOAT", "tensorShape": { "dim": [{ "size": "960" }] } }
          },
          "dtype": { "type": "DT_FLOAT" }
        }
      },
      {
        "name": "StatefulPartitionedCall/efficientnetv2-s/blocks_21/depthwise_conv2d/depthwise_weights",
        "op": "Const",
        "attr": {
          "value": {
            "tensor": {
              "dtype": "DT_FLOAT",
              "tensorShape": {
                "dim": [{ "size": "3" }, { "size": "3" }, { "size": "960" }, { "size": "1" }]
              }
            }
          },
          "dtype": { "type": "DT_FLOAT" }
        }
      },
      {
        "name": "StatefulPartitionedCall/efficientnetv2-s/blocks_21/depthwise_conv2d/depthwise_bn_offset",
        "op": "Const",
        "attr": {
          "value": {
            "tensor": { "dtype": "DT_FLOAT", "tensorShape": { "dim": [{ "size": "960" }] } }
          },
          "dtype": { "type": "DT_FLOAT" }
        }
      },
      {
        "name": "StatefulPartitionedCall/efficientnetv2-s/blocks_21/conv2d_1/Conv2D_weights",
        "op": "Const",
        "attr": {
          "value": {
            "tensor": {
              "dtype": "DT_FLOAT",
              "tensorShape": {
                "dim": [{ "size": "1" }, { "size": "1" }, { "size": "960" }, { "size": "160" }]
              }
            }
          },
          "dtype": { "type": "DT_FLOAT" }
        }
      },
      {
        "name": "StatefulPartitionedCall/efficientnetv2-s/blocks_39/conv2d_1/Conv2D_bn_offset",
        "op": "Const",
        "attr": {
          "value": {
            "tensor": { "dtype": "DT_FLOAT", "tensorShape": { "dim": [{ "size": "256" }] } }
          },
          "dtype": { "type": "DT_FLOAT" }
        }
      },
      {
        "name": "StatefulPartitionedCall/efficientnetv2-s/blocks_21/conv2d_1/Conv2D_bn_offset",
        "op": "Const",
        "attr": {
          "value": {
            "tensor": { "dtype": "DT_FLOAT", "tensorShape": { "dim": [{ "size": "160" }] } }
          },
          "dtype": { "type": "DT_FLOAT" }
        }
      },
      {
        "name": "StatefulPartitionedCall/efficientnetv2-s/blocks_22/conv2d/Conv2D_weights",
        "op": "Const",
        "attr": {
          "value": {
            "tensor": {
              "dtype": "DT_FLOAT",
              "tensorShape": {
                "dim": [{ "size": "1" }, { "size": "1" }, { "size": "160" }, { "size": "960" }]
              }
            }
          },
          "dtype": { "type": "DT_FLOAT" }
        }
      },
      {
        "name": "StatefulPartitionedCall/efficientnetv2-s/blocks_22/conv2d/Conv2D_bn_offset",
        "op": "Const",
        "attr": {
          "value": {
            "tensor": { "dtype": "DT_FLOAT", "tensorShape": { "dim": [{ "size": "960" }] } }
          },
          "dtype": { "type": "DT_FLOAT" }
        }
      },
      {
        "name": "StatefulPartitionedCall/efficientnetv2-s/blocks_22/depthwise_conv2d/depthwise_weights",
        "op": "Const",
        "attr": {
          "value": {
            "tensor": {
              "dtype": "DT_FLOAT",
              "tensorShape": {
                "dim": [{ "size": "3" }, { "size": "3" }, { "size": "960" }, { "size": "1" }]
              }
            }
          },
          "dtype": { "type": "DT_FLOAT" }
        }
      },
      {
        "name": "StatefulPartitionedCall/efficientnetv2-s/blocks_22/depthwise_conv2d/depthwise_bn_offset",
        "op": "Const",
        "attr": {
          "value": {
            "tensor": { "dtype": "DT_FLOAT", "tensorShape": { "dim": [{ "size": "960" }] } }
          },
          "dtype": { "type": "DT_FLOAT" }
        }
      },
      {
        "name": "StatefulPartitionedCall/efficientnetv2-s/blocks_22/conv2d_1/Conv2D_weights",
        "op": "Const",
        "attr": {
          "value": {
            "tensor": {
              "dtype": "DT_FLOAT",
              "tensorShape": {
                "dim": [{ "size": "1" }, { "size": "1" }, { "size": "960" }, { "size": "160" }]
              }
            }
          },
          "dtype": { "type": "DT_FLOAT" }
        }
      },
      {
        "name": "StatefulPartitionedCall/efficientnetv2-s/blocks_22/conv2d_1/Conv2D_bn_offset",
        "op": "Const",
        "attr": {
          "value": {
            "tensor": { "dtype": "DT_FLOAT", "tensorShape": { "dim": [{ "size": "160" }] } }
          },
          "dtype": { "type": "DT_FLOAT" }
        }
      },
      {
        "name": "StatefulPartitionedCall/efficientnetv2-s/blocks_23/conv2d/Conv2D_weights",
        "op": "Const",
        "attr": {
          "value": {
            "tensor": {
              "dtype": "DT_FLOAT",
              "tensorShape": {
                "dim": [{ "size": "1" }, { "size": "1" }, { "size": "160" }, { "size": "960" }]
              }
            }
          },
          "dtype": { "type": "DT_FLOAT" }
        }
      },
      {
        "name": "StatefulPartitionedCall/efficientnetv2-s/blocks_23/conv2d/Conv2D_bn_offset",
        "op": "Const",
        "attr": {
          "value": {
            "tensor": { "dtype": "DT_FLOAT", "tensorShape": { "dim": [{ "size": "960" }] } }
          },
          "dtype": { "type": "DT_FLOAT" }
        }
      },
      {
        "name": "StatefulPartitionedCall/efficientnetv2-s/blocks_23/depthwise_conv2d/depthwise_weights",
        "op": "Const",
        "attr": {
          "value": {
            "tensor": {
              "dtype": "DT_FLOAT",
              "tensorShape": {
                "dim": [{ "size": "3" }, { "size": "3" }, { "size": "960" }, { "size": "1" }]
              }
            }
          },
          "dtype": { "type": "DT_FLOAT" }
        }
      },
      {
        "name": "StatefulPartitionedCall/efficientnetv2-s/blocks_23/depthwise_conv2d/depthwise_bn_offset",
        "op": "Const",
        "attr": {
          "value": {
            "tensor": { "dtype": "DT_FLOAT", "tensorShape": { "dim": [{ "size": "960" }] } }
          },
          "dtype": { "type": "DT_FLOAT" }
        }
      },
      {
        "name": "StatefulPartitionedCall/efficientnetv2-s/blocks_23/conv2d_1/Conv2D_weights",
        "op": "Const",
        "attr": {
          "value": {
            "tensor": {
              "dtype": "DT_FLOAT",
              "tensorShape": {
                "dim": [{ "size": "1" }, { "size": "1" }, { "size": "960" }, { "size": "160" }]
              }
            }
          },
          "dtype": { "type": "DT_FLOAT" }
        }
      },
      {
        "name": "StatefulPartitionedCall/efficientnetv2-s/blocks_37/conv2d_1/Conv2D_weights",
        "op": "Const",
        "attr": {
          "value": {
            "tensor": {
              "dtype": "DT_FLOAT",
              "tensorShape": {
                "dim": [{ "size": "1" }, { "size": "1" }, { "size": "1536" }, { "size": "256" }]
              }
            }
          },
          "dtype": { "type": "DT_FLOAT" }
        }
      },
      {
        "name": "StatefulPartitionedCall/efficientnetv2-s/blocks_23/conv2d_1/Conv2D_bn_offset",
        "op": "Const",
        "attr": {
          "value": {
            "tensor": { "dtype": "DT_FLOAT", "tensorShape": { "dim": [{ "size": "160" }] } }
          },
          "dtype": { "type": "DT_FLOAT" }
        }
      },
      {
        "name": "StatefulPartitionedCall/efficientnetv2-s/blocks_24/conv2d/Conv2D_weights",
        "op": "Const",
        "attr": {
          "value": {
            "tensor": {
              "dtype": "DT_FLOAT",
              "tensorShape": {
                "dim": [{ "size": "1" }, { "size": "1" }, { "size": "160" }, { "size": "960" }]
              }
            }
          },
          "dtype": { "type": "DT_FLOAT" }
        }
      },
      {
        "name": "StatefulPartitionedCall/efficientnetv2-s/blocks_24/conv2d/Conv2D_bn_offset",
        "op": "Const",
        "attr": {
          "value": {
            "tensor": { "dtype": "DT_FLOAT", "tensorShape": { "dim": [{ "size": "960" }] } }
          },
          "dtype": { "type": "DT_FLOAT" }
        }
      },
      {
        "name": "StatefulPartitionedCall/efficientnetv2-s/blocks_24/depthwise_conv2d/depthwise_weights",
        "op": "Const",
        "attr": {
          "value": {
            "tensor": {
              "dtype": "DT_FLOAT",
              "tensorShape": {
                "dim": [{ "size": "3" }, { "size": "3" }, { "size": "960" }, { "size": "1" }]
              }
            }
          },
          "dtype": { "type": "DT_FLOAT" }
        }
      },
      {
        "name": "StatefulPartitionedCall/efficientnetv2-s/blocks_24/depthwise_conv2d/depthwise_bn_offset",
        "op": "Const",
        "attr": {
          "value": {
            "tensor": { "dtype": "DT_FLOAT", "tensorShape": { "dim": [{ "size": "960" }] } }
          },
          "dtype": { "type": "DT_FLOAT" }
        }
      },
      {
        "name": "StatefulPartitionedCall/efficientnetv2-s/blocks_37/conv2d_1/Conv2D_bn_offset",
        "op": "Const",
        "attr": {
          "value": {
            "tensor": { "dtype": "DT_FLOAT", "tensorShape": { "dim": [{ "size": "256" }] } }
          },
          "dtype": { "type": "DT_FLOAT" }
        }
      },
      {
        "name": "StatefulPartitionedCall/efficientnetv2-s/blocks_24/conv2d_1/Conv2D_weights",
        "op": "Const",
        "attr": {
          "value": {
            "tensor": {
              "dtype": "DT_FLOAT",
              "tensorShape": {
                "dim": [{ "size": "1" }, { "size": "1" }, { "size": "960" }, { "size": "160" }]
              }
            }
          },
          "dtype": { "type": "DT_FLOAT" }
        }
      },
      {
        "name": "StatefulPartitionedCall/efficientnetv2-s/blocks_24/conv2d_1/Conv2D_bn_offset",
        "op": "Const",
        "attr": {
          "value": {
            "tensor": { "dtype": "DT_FLOAT", "tensorShape": { "dim": [{ "size": "160" }] } }
          },
          "dtype": { "type": "DT_FLOAT" }
        }
      },
      {
        "name": "StatefulPartitionedCall/efficientnetv2-s/blocks_25/conv2d/Conv2D_weights",
        "op": "Const",
        "attr": {
          "value": {
            "tensor": {
              "dtype": "DT_FLOAT",
              "tensorShape": {
                "dim": [{ "size": "1" }, { "size": "1" }, { "size": "160" }, { "size": "960" }]
              }
            }
          },
          "dtype": { "type": "DT_FLOAT" }
        }
      },
      {
        "name": "StatefulPartitionedCall/efficientnetv2-s/blocks_38/conv2d/Conv2D_weights",
        "op": "Const",
        "attr": {
          "value": {
            "tensor": {
              "dtype": "DT_FLOAT",
              "tensorShape": {
                "dim": [{ "size": "1" }, { "size": "1" }, { "size": "256" }, { "size": "1536" }]
              }
            }
          },
          "dtype": { "type": "DT_FLOAT" }
        }
      },
      {
        "name": "StatefulPartitionedCall/efficientnetv2-s/blocks_25/conv2d/Conv2D_bn_offset",
        "op": "Const",
        "attr": {
          "value": {
            "tensor": { "dtype": "DT_FLOAT", "tensorShape": { "dim": [{ "size": "960" }] } }
          },
          "dtype": { "type": "DT_FLOAT" }
        }
      },
      {
        "name": "StatefulPartitionedCall/efficientnetv2-s/blocks_25/depthwise_conv2d/depthwise_weights",
        "op": "Const",
        "attr": {
          "value": {
            "tensor": {
              "dtype": "DT_FLOAT",
              "tensorShape": {
                "dim": [{ "size": "3" }, { "size": "3" }, { "size": "960" }, { "size": "1" }]
              }
            }
          },
          "dtype": { "type": "DT_FLOAT" }
        }
      },
      {
        "name": "StatefulPartitionedCall/efficientnetv2-s/blocks_25/depthwise_conv2d/depthwise_bn_offset",
        "op": "Const",
        "attr": {
          "value": {
            "tensor": { "dtype": "DT_FLOAT", "tensorShape": { "dim": [{ "size": "960" }] } }
          },
          "dtype": { "type": "DT_FLOAT" }
        }
      },
      {
        "name": "StatefulPartitionedCall/efficientnetv2-s/head/conv2d/Conv2D_weights",
        "op": "Const",
        "attr": {
          "value": {
            "tensor": {
              "dtype": "DT_FLOAT",
              "tensorShape": {
                "dim": [{ "size": "1" }, { "size": "1" }, { "size": "256" }, { "size": "1280" }]
              }
            }
          },
          "dtype": { "type": "DT_FLOAT" }
        }
      },
      {
        "name": "StatefulPartitionedCall/efficientnetv2-s/blocks_38/conv2d/Conv2D_bn_offset",
        "op": "Const",
        "attr": {
          "value": {
            "tensor": { "dtype": "DT_FLOAT", "tensorShape": { "dim": [{ "size": "1536" }] } }
          },
          "dtype": { "type": "DT_FLOAT" }
        }
      },
      {
        "name": "StatefulPartitionedCall/efficientnetv2-s/blocks_25/conv2d_1/Conv2D_weights",
        "op": "Const",
        "attr": {
          "value": {
            "tensor": {
              "dtype": "DT_FLOAT",
              "tensorShape": {
                "dim": [{ "size": "1" }, { "size": "1" }, { "size": "960" }, { "size": "256" }]
              }
            }
          },
          "dtype": { "type": "DT_FLOAT" }
        }
      },
      {
        "name": "StatefulPartitionedCall/efficientnetv2-s/blocks_25/conv2d_1/Conv2D_bn_offset",
        "op": "Const",
        "attr": {
          "value": {
            "tensor": { "dtype": "DT_FLOAT", "tensorShape": { "dim": [{ "size": "256" }] } }
          },
          "dtype": { "type": "DT_FLOAT" }
        }
      },
      {
        "name": "StatefulPartitionedCall/efficientnetv2-s/blocks_26/conv2d/Conv2D_weights",
        "op": "Const",
        "attr": {
          "value": {
            "tensor": {
              "dtype": "DT_FLOAT",
              "tensorShape": {
                "dim": [{ "size": "1" }, { "size": "1" }, { "size": "256" }, { "size": "1536" }]
              }
            }
          },
          "dtype": { "type": "DT_FLOAT" }
        }
      },
      {
        "name": "StatefulPartitionedCall/efficientnetv2-s/blocks_26/conv2d/Conv2D_bn_offset",
        "op": "Const",
        "attr": {
          "value": {
            "tensor": { "dtype": "DT_FLOAT", "tensorShape": { "dim": [{ "size": "1536" }] } }
          },
          "dtype": { "type": "DT_FLOAT" }
        }
      },
      {
        "name": "StatefulPartitionedCall/efficientnetv2-s/blocks_26/depthwise_conv2d/depthwise_weights",
        "op": "Const",
        "attr": {
          "value": {
            "tensor": {
              "dtype": "DT_FLOAT",
              "tensorShape": {
                "dim": [{ "size": "3" }, { "size": "3" }, { "size": "1536" }, { "size": "1" }]
              }
            }
          },
          "dtype": { "type": "DT_FLOAT" }
        }
      },
      {
        "name": "StatefulPartitionedCall/efficientnetv2-s/blocks_26/depthwise_conv2d/depthwise_bn_offset",
        "op": "Const",
        "attr": {
          "value": {
            "tensor": { "dtype": "DT_FLOAT", "tensorShape": { "dim": [{ "size": "1536" }] } }
          },
          "dtype": { "type": "DT_FLOAT" }
        }
      },
      {
        "name": "StatefulPartitionedCall/efficientnetv2-s/blocks_38/depthwise_conv2d/depthwise_weights",
        "op": "Const",
        "attr": {
          "value": {
            "tensor": {
              "dtype": "DT_FLOAT",
              "tensorShape": {
                "dim": [{ "size": "3" }, { "size": "3" }, { "size": "1536" }, { "size": "1" }]
              }
            }
          },
          "dtype": { "type": "DT_FLOAT" }
        }
      },
      {
        "name": "StatefulPartitionedCall/efficientnetv2-s/blocks_26/conv2d_1/Conv2D_weights",
        "op": "Const",
        "attr": {
          "value": {
            "tensor": {
              "dtype": "DT_FLOAT",
              "tensorShape": {
                "dim": [{ "size": "1" }, { "size": "1" }, { "size": "1536" }, { "size": "256" }]
              }
            }
          },
          "dtype": { "type": "DT_FLOAT" }
        }
      },
      {
        "name": "StatefulPartitionedCall/efficientnetv2-s/blocks_26/conv2d_1/Conv2D_bn_offset",
        "op": "Const",
        "attr": {
          "value": {
            "tensor": { "dtype": "DT_FLOAT", "tensorShape": { "dim": [{ "size": "256" }] } }
          },
          "dtype": { "type": "DT_FLOAT" }
        }
      },
      {
        "name": "StatefulPartitionedCall/efficientnetv2-s/blocks_27/conv2d/Conv2D_weights",
        "op": "Const",
        "attr": {
          "value": {
            "tensor": {
              "dtype": "DT_FLOAT",
              "tensorShape": {
                "dim": [{ "size": "1" }, { "size": "1" }, { "size": "256" }, { "size": "1536" }]
              }
            }
          },
          "dtype": { "type": "DT_FLOAT" }
        }
      },
      {
        "name": "StatefulPartitionedCall/efficientnetv2-s/blocks_38/depthwise_conv2d/depthwise_bn_offset",
        "op": "Const",
        "attr": {
          "value": {
            "tensor": { "dtype": "DT_FLOAT", "tensorShape": { "dim": [{ "size": "1536" }] } }
          },
          "dtype": { "type": "DT_FLOAT" }
        }
      },
      {
        "name": "StatefulPartitionedCall/efficientnetv2-s/blocks_27/conv2d/Conv2D_bn_offset",
        "op": "Const",
        "attr": {
          "value": {
            "tensor": { "dtype": "DT_FLOAT", "tensorShape": { "dim": [{ "size": "1536" }] } }
          },
          "dtype": { "type": "DT_FLOAT" }
        }
      },
      {
        "name": "StatefulPartitionedCall/efficientnetv2-s/blocks_27/depthwise_conv2d/depthwise_weights",
        "op": "Const",
        "attr": {
          "value": {
            "tensor": {
              "dtype": "DT_FLOAT",
              "tensorShape": {
                "dim": [{ "size": "3" }, { "size": "3" }, { "size": "1536" }, { "size": "1" }]
              }
            }
          },
          "dtype": { "type": "DT_FLOAT" }
        }
      },
      {
        "name": "StatefulPartitionedCall/efficientnetv2-s/blocks_27/depthwise_conv2d/depthwise_bn_offset",
        "op": "Const",
        "attr": {
          "value": {
            "tensor": { "dtype": "DT_FLOAT", "tensorShape": { "dim": [{ "size": "1536" }] } }
          },
          "dtype": { "type": "DT_FLOAT" }
        }
      },
      {
        "name": "StatefulPartitionedCall/efficientnetv2-s/blocks_27/conv2d_1/Conv2D_weights",
        "op": "Const",
        "attr": {
          "value": {
            "tensor": {
              "dtype": "DT_FLOAT",
              "tensorShape": {
                "dim": [{ "size": "1" }, { "size": "1" }, { "size": "1536" }, { "size": "256" }]
              }
            }
          },
          "dtype": { "type": "DT_FLOAT" }
        }
      },
      {
        "name": "StatefulPartitionedCall/efficientnetv2-s/blocks_27/conv2d_1/Conv2D_bn_offset",
        "op": "Const",
        "attr": {
          "value": {
            "tensor": { "dtype": "DT_FLOAT", "tensorShape": { "dim": [{ "size": "256" }] } }
          },
          "dtype": { "type": "DT_FLOAT" }
        }
      },
      {
        "name": "StatefulPartitionedCall/efficientnetv2-s/blocks_28/conv2d/Conv2D_weights",
        "op": "Const",
        "attr": {
          "value": {
            "tensor": {
              "dtype": "DT_FLOAT",
              "tensorShape": {
                "dim": [{ "size": "1" }, { "size": "1" }, { "size": "256" }, { "size": "1536" }]
              }
            }
          },
          "dtype": { "type": "DT_FLOAT" }
        }
      },
      {
        "name": "StatefulPartitionedCall/efficientnetv2-s/blocks_28/conv2d/Conv2D_bn_offset",
        "op": "Const",
        "attr": {
          "value": {
            "tensor": { "dtype": "DT_FLOAT", "tensorShape": { "dim": [{ "size": "1536" }] } }
          },
          "dtype": { "type": "DT_FLOAT" }
        }
      },
      {
        "name": "StatefulPartitionedCall/efficientnetv2-s/blocks_28/depthwise_conv2d/depthwise_weights",
        "op": "Const",
        "attr": {
          "value": {
            "tensor": {
              "dtype": "DT_FLOAT",
              "tensorShape": {
                "dim": [{ "size": "3" }, { "size": "3" }, { "size": "1536" }, { "size": "1" }]
              }
            }
          },
          "dtype": { "type": "DT_FLOAT" }
        }
      },
      {
        "name": "StatefulPartitionedCall/efficientnetv2-s/blocks_28/depthwise_conv2d/depthwise_bn_offset",
        "op": "Const",
        "attr": {
          "value": {
            "tensor": { "dtype": "DT_FLOAT", "tensorShape": { "dim": [{ "size": "1536" }] } }
          },
          "dtype": { "type": "DT_FLOAT" }
        }
      },
      {
        "name": "StatefulPartitionedCall/efficientnetv2-s/blocks_28/conv2d_1/Conv2D_weights",
        "op": "Const",
        "attr": {
          "value": {
            "tensor": {
              "dtype": "DT_FLOAT",
              "tensorShape": {
                "dim": [{ "size": "1" }, { "size": "1" }, { "size": "1536" }, { "size": "256" }]
              }
            }
          },
          "dtype": { "type": "DT_FLOAT" }
        }
      },
      {
        "name": "StatefulPartitionedCall/efficientnetv2-s/blocks_28/conv2d_1/Conv2D_bn_offset",
        "op": "Const",
        "attr": {
          "value": {
            "tensor": { "dtype": "DT_FLOAT", "tensorShape": { "dim": [{ "size": "256" }] } }
          },
          "dtype": { "type": "DT_FLOAT" }
        }
      },
      {
        "name": "StatefulPartitionedCall/efficientnetv2-s/blocks_29/conv2d/Conv2D_weights",
        "op": "Const",
        "attr": {
          "value": {
            "tensor": {
              "dtype": "DT_FLOAT",
              "tensorShape": {
                "dim": [{ "size": "1" }, { "size": "1" }, { "size": "256" }, { "size": "1536" }]
              }
            }
          },
          "dtype": { "type": "DT_FLOAT" }
        }
      },
      {
        "name": "StatefulPartitionedCall/efficientnetv2-s/blocks_29/conv2d/Conv2D_bn_offset",
        "op": "Const",
        "attr": {
          "value": {
            "tensor": { "dtype": "DT_FLOAT", "tensorShape": { "dim": [{ "size": "1536" }] } }
          },
          "dtype": { "type": "DT_FLOAT" }
        }
      },
      {
        "name": "StatefulPartitionedCall/efficientnetv2-s/blocks_29/depthwise_conv2d/depthwise_weights",
        "op": "Const",
        "attr": {
          "value": {
            "tensor": {
              "dtype": "DT_FLOAT",
              "tensorShape": {
                "dim": [{ "size": "3" }, { "size": "3" }, { "size": "1536" }, { "size": "1" }]
              }
            }
          },
          "dtype": { "type": "DT_FLOAT" }
        }
      },
      {
        "name": "StatefulPartitionedCall/efficientnetv2-s/blocks_29/depthwise_conv2d/depthwise_bn_offset",
        "op": "Const",
        "attr": {
          "value": {
            "tensor": { "dtype": "DT_FLOAT", "tensorShape": { "dim": [{ "size": "1536" }] } }
          },
          "dtype": { "type": "DT_FLOAT" }
        }
      },
      {
        "name": "StatefulPartitionedCall/efficientnetv2-s/head/conv2d/Conv2D_bn_offset",
        "op": "Const",
        "attr": {
          "value": {
            "tensor": { "dtype": "DT_FLOAT", "tensorShape": { "dim": [{ "size": "1280" }] } }
          },
          "dtype": { "type": "DT_FLOAT" }
        }
      },
      {
        "name": "StatefulPartitionedCall/efficientnetv2-s/blocks_29/conv2d_1/Conv2D_weights",
        "op": "Const",
        "attr": {
          "value": {
            "tensor": {
              "dtype": "DT_FLOAT",
              "tensorShape": {
                "dim": [{ "size": "1" }, { "size": "1" }, { "size": "1536" }, { "size": "256" }]
              }
            }
          },
          "dtype": { "type": "DT_FLOAT" }
        }
      },
      {
        "name": "StatefulPartitionedCall/efficientnetv2-s/blocks_29/conv2d_1/Conv2D_bn_offset",
        "op": "Const",
        "attr": {
          "value": {
            "tensor": { "dtype": "DT_FLOAT", "tensorShape": { "dim": [{ "size": "256" }] } }
          },
          "dtype": { "type": "DT_FLOAT" }
        }
      },
      {
        "name": "StatefulPartitionedCall/efficientnetv2-s/blocks_30/conv2d/Conv2D_weights",
        "op": "Const",
        "attr": {
          "value": {
            "tensor": {
              "dtype": "DT_FLOAT",
              "tensorShape": {
                "dim": [{ "size": "1" }, { "size": "1" }, { "size": "256" }, { "size": "1536" }]
              }
            }
          },
          "dtype": { "type": "DT_FLOAT" }
        }
      },
      {
        "name": "StatefulPartitionedCall/efficientnetv2-s/blocks_30/conv2d/Conv2D_bn_offset",
        "op": "Const",
        "attr": {
          "value": {
            "tensor": { "dtype": "DT_FLOAT", "tensorShape": { "dim": [{ "size": "1536" }] } }
          },
          "dtype": { "type": "DT_FLOAT" }
        }
      },
      {
        "name": "StatefulPartitionedCall/efficientnetv2-s/blocks_30/depthwise_conv2d/depthwise_weights",
        "op": "Const",
        "attr": {
          "value": {
            "tensor": {
              "dtype": "DT_FLOAT",
              "tensorShape": {
                "dim": [{ "size": "3" }, { "size": "3" }, { "size": "1536" }, { "size": "1" }]
              }
            }
          },
          "dtype": { "type": "DT_FLOAT" }
        }
      },
      {
        "name": "StatefulPartitionedCall/efficientnetv2-s/blocks_30/depthwise_conv2d/depthwise_bn_offset",
        "op": "Const",
        "attr": {
          "value": {
            "tensor": { "dtype": "DT_FLOAT", "tensorShape": { "dim": [{ "size": "1536" }] } }
          },
          "dtype": { "type": "DT_FLOAT" }
        }
      },
      {
        "name": "StatefulPartitionedCall/efficientnetv2-s/blocks_38/conv2d_1/Conv2D_weights",
        "op": "Const",
        "attr": {
          "value": {
            "tensor": {
              "dtype": "DT_FLOAT",
              "tensorShape": {
                "dim": [{ "size": "1" }, { "size": "1" }, { "size": "1536" }, { "size": "256" }]
              }
            }
          },
          "dtype": { "type": "DT_FLOAT" }
        }
      },
      {
        "name": "StatefulPartitionedCall/efficientnetv2-s/blocks_30/conv2d_1/Conv2D_weights",
        "op": "Const",
        "attr": {
          "value": {
            "tensor": {
              "dtype": "DT_FLOAT",
              "tensorShape": {
                "dim": [{ "size": "1" }, { "size": "1" }, { "size": "1536" }, { "size": "256" }]
              }
            }
          },
          "dtype": { "type": "DT_FLOAT" }
        }
      },
      {
        "name": "StatefulPartitionedCall/efficientnetv2-s/blocks_38/conv2d_1/Conv2D_bn_offset",
        "op": "Const",
        "attr": {
          "value": {
            "tensor": { "dtype": "DT_FLOAT", "tensorShape": { "dim": [{ "size": "256" }] } }
          },
          "dtype": { "type": "DT_FLOAT" }
        }
      },
      {
        "name": "StatefulPartitionedCall/efficientnetv2-s/blocks_30/conv2d_1/Conv2D_bn_offset",
        "op": "Const",
        "attr": {
          "value": {
            "tensor": { "dtype": "DT_FLOAT", "tensorShape": { "dim": [{ "size": "256" }] } }
          },
          "dtype": { "type": "DT_FLOAT" }
        }
      },
      {
        "name": "StatefulPartitionedCall/efficientnetv2-s/blocks_31/conv2d/Conv2D_weights",
        "op": "Const",
        "attr": {
          "value": {
            "tensor": {
              "dtype": "DT_FLOAT",
              "tensorShape": {
                "dim": [{ "size": "1" }, { "size": "1" }, { "size": "256" }, { "size": "1536" }]
              }
            }
          },
          "dtype": { "type": "DT_FLOAT" }
        }
      },
      {
        "name": "StatefulPartitionedCall/efficientnetv2-s/blocks_31/conv2d/Conv2D_bn_offset",
        "op": "Const",
        "attr": {
          "value": {
            "tensor": { "dtype": "DT_FLOAT", "tensorShape": { "dim": [{ "size": "1536" }] } }
          },
          "dtype": { "type": "DT_FLOAT" }
        }
      },
      {
        "name": "StatefulPartitionedCall/efficientnetv2-s/blocks_31/depthwise_conv2d/depthwise_weights",
        "op": "Const",
        "attr": {
          "value": {
            "tensor": {
              "dtype": "DT_FLOAT",
              "tensorShape": {
                "dim": [{ "size": "3" }, { "size": "3" }, { "size": "1536" }, { "size": "1" }]
              }
            }
          },
          "dtype": { "type": "DT_FLOAT" }
        }
      },
      {
        "name": "StatefulPartitionedCall/efficientnetv2-s/blocks_31/depthwise_conv2d/depthwise_bn_offset",
        "op": "Const",
        "attr": {
          "value": {
            "tensor": { "dtype": "DT_FLOAT", "tensorShape": { "dim": [{ "size": "1536" }] } }
          },
          "dtype": { "type": "DT_FLOAT" }
        }
      },
      {
        "name": "StatefulPartitionedCall/efficientnetv2-s/blocks_39/conv2d/Conv2D_weights",
        "op": "Const",
        "attr": {
          "value": {
            "tensor": {
              "dtype": "DT_FLOAT",
              "tensorShape": {
                "dim": [{ "size": "1" }, { "size": "1" }, { "size": "256" }, { "size": "1536" }]
              }
            }
          },
          "dtype": { "type": "DT_FLOAT" }
        }
      },
      {
        "name": "StatefulPartitionedCall/efficientnetv2-s/blocks_31/conv2d_1/Conv2D_weights",
        "op": "Const",
        "attr": {
          "value": {
            "tensor": {
              "dtype": "DT_FLOAT",
              "tensorShape": {
                "dim": [{ "size": "1" }, { "size": "1" }, { "size": "1536" }, { "size": "256" }]
              }
            }
          },
          "dtype": { "type": "DT_FLOAT" }
        }
      },
      {
        "name": "StatefulPartitionedCall/efficientnetv2-s/blocks_31/conv2d_1/Conv2D_bn_offset",
        "op": "Const",
        "attr": {
          "value": {
            "tensor": { "dtype": "DT_FLOAT", "tensorShape": { "dim": [{ "size": "256" }] } }
          },
          "dtype": { "type": "DT_FLOAT" }
        }
      },
      {
        "name": "StatefulPartitionedCall/efficientnetv2-s/blocks_32/conv2d/Conv2D_weights",
        "op": "Const",
        "attr": {
          "value": {
            "tensor": {
              "dtype": "DT_FLOAT",
              "tensorShape": {
                "dim": [{ "size": "1" }, { "size": "1" }, { "size": "256" }, { "size": "1536" }]
              }
            }
          },
          "dtype": { "type": "DT_FLOAT" }
        }
      },
      {
        "name": "StatefulPartitionedCall/efficientnetv2-s/blocks_39/conv2d/Conv2D_bn_offset",
        "op": "Const",
        "attr": {
          "value": {
            "tensor": { "dtype": "DT_FLOAT", "tensorShape": { "dim": [{ "size": "1536" }] } }
          },
          "dtype": { "type": "DT_FLOAT" }
        }
      },
      {
        "name": "StatefulPartitionedCall/efficientnetv2-s/blocks_32/conv2d/Conv2D_bn_offset",
        "op": "Const",
        "attr": {
          "value": {
            "tensor": { "dtype": "DT_FLOAT", "tensorShape": { "dim": [{ "size": "1536" }] } }
          },
          "dtype": { "type": "DT_FLOAT" }
        }
      },
      {
        "name": "StatefulPartitionedCall/efficientnetv2-s/blocks_32/depthwise_conv2d/depthwise_weights",
        "op": "Const",
        "attr": {
          "value": {
            "tensor": {
              "dtype": "DT_FLOAT",
              "tensorShape": {
                "dim": [{ "size": "3" }, { "size": "3" }, { "size": "1536" }, { "size": "1" }]
              }
            }
          },
          "dtype": { "type": "DT_FLOAT" }
        }
      },
      {
        "name": "StatefulPartitionedCall/efficientnetv2-s/blocks_32/depthwise_conv2d/depthwise_bn_offset",
        "op": "Const",
        "attr": {
          "value": {
            "tensor": { "dtype": "DT_FLOAT", "tensorShape": { "dim": [{ "size": "1536" }] } }
          },
          "dtype": { "type": "DT_FLOAT" }
        }
      },
      {
        "name": "StatefulPartitionedCall/efficientnetv2-s/blocks_32/conv2d_1/Conv2D_weights",
        "op": "Const",
        "attr": {
          "value": {
            "tensor": {
              "dtype": "DT_FLOAT",
              "tensorShape": {
                "dim": [{ "size": "1" }, { "size": "1" }, { "size": "1536" }, { "size": "256" }]
              }
            }
          },
          "dtype": { "type": "DT_FLOAT" }
        }
      },
      {
        "name": "StatefulPartitionedCall/efficientnetv2-s/blocks_32/conv2d_1/Conv2D_bn_offset",
        "op": "Const",
        "attr": {
          "value": {
            "tensor": { "dtype": "DT_FLOAT", "tensorShape": { "dim": [{ "size": "256" }] } }
          },
          "dtype": { "type": "DT_FLOAT" }
        }
      },
      {
        "name": "StatefulPartitionedCall/efficientnetv2-s/blocks_33/conv2d/Conv2D_weights",
        "op": "Const",
        "attr": {
          "value": {
            "tensor": {
              "dtype": "DT_FLOAT",
              "tensorShape": {
                "dim": [{ "size": "1" }, { "size": "1" }, { "size": "256" }, { "size": "1536" }]
              }
            }
          },
          "dtype": { "type": "DT_FLOAT" }
        }
      },
      {
        "name": "StatefulPartitionedCall/efficientnetv2-s/blocks_39/depthwise_conv2d/depthwise_weights",
        "op": "Const",
        "attr": {
          "value": {
            "tensor": {
              "dtype": "DT_FLOAT",
              "tensorShape": {
                "dim": [{ "size": "3" }, { "size": "3" }, { "size": "1536" }, { "size": "1" }]
              }
            }
          },
          "dtype": { "type": "DT_FLOAT" }
        }
      },
      {
        "name": "StatefulPartitionedCall/efficientnetv2-s/blocks_33/conv2d/Conv2D_bn_offset",
        "op": "Const",
        "attr": {
          "value": {
            "tensor": { "dtype": "DT_FLOAT", "tensorShape": { "dim": [{ "size": "1536" }] } }
          },
          "dtype": { "type": "DT_FLOAT" }
        }
      },
      {
        "name": "StatefulPartitionedCall/efficientnetv2-s/blocks_33/depthwise_conv2d/depthwise_weights",
        "op": "Const",
        "attr": {
          "value": {
            "tensor": {
              "dtype": "DT_FLOAT",
              "tensorShape": {
                "dim": [{ "size": "3" }, { "size": "3" }, { "size": "1536" }, { "size": "1" }]
              }
            }
          },
          "dtype": { "type": "DT_FLOAT" }
        }
      },
      {
        "name": "StatefulPartitionedCall/efficientnetv2-s/blocks_33/depthwise_conv2d/depthwise_bn_offset",
        "op": "Const",
        "attr": {
          "value": {
            "tensor": { "dtype": "DT_FLOAT", "tensorShape": { "dim": [{ "size": "1536" }] } }
          },
          "dtype": { "type": "DT_FLOAT" }
        }
      },
      {
        "name": "StatefulPartitionedCall/efficientnetv2-s/blocks_39/depthwise_conv2d/depthwise_bn_offset",
        "op": "Const",
        "attr": {
          "value": {
            "tensor": { "dtype": "DT_FLOAT", "tensorShape": { "dim": [{ "size": "1536" }] } }
          },
          "dtype": { "type": "DT_FLOAT" }
        }
      },
      {
        "name": "StatefulPartitionedCall/efficientnetv2-s/blocks_33/conv2d_1/Conv2D_weights",
        "op": "Const",
        "attr": {
          "value": {
            "tensor": {
              "dtype": "DT_FLOAT",
              "tensorShape": {
                "dim": [{ "size": "1" }, { "size": "1" }, { "size": "1536" }, { "size": "256" }]
              }
            }
          },
          "dtype": { "type": "DT_FLOAT" }
        }
      },
      {
        "name": "StatefulPartitionedCall/efficientnetv2-s/blocks_33/conv2d_1/Conv2D_bn_offset",
        "op": "Const",
        "attr": {
          "value": {
            "tensor": { "dtype": "DT_FLOAT", "tensorShape": { "dim": [{ "size": "256" }] } }
          },
          "dtype": { "type": "DT_FLOAT" }
        }
      },
      {
        "name": "StatefulPartitionedCall/efficientnetv2-s/blocks_34/conv2d/Conv2D_weights",
        "op": "Const",
        "attr": {
          "value": {
            "tensor": {
              "dtype": "DT_FLOAT",
              "tensorShape": {
                "dim": [{ "size": "1" }, { "size": "1" }, { "size": "256" }, { "size": "1536" }]
              }
            }
          },
          "dtype": { "type": "DT_FLOAT" }
        }
      },
      {
        "name": "StatefulPartitionedCall/efficientnetv2-s/blocks_34/conv2d/Conv2D_bn_offset",
        "op": "Const",
        "attr": {
          "value": {
            "tensor": { "dtype": "DT_FLOAT", "tensorShape": { "dim": [{ "size": "1536" }] } }
          },
          "dtype": { "type": "DT_FLOAT" }
        }
      },
      {
        "name": "StatefulPartitionedCall/efficientnetv2-s/blocks_34/depthwise_conv2d/depthwise_weights",
        "op": "Const",
        "attr": {
          "value": {
            "tensor": {
              "dtype": "DT_FLOAT",
              "tensorShape": {
                "dim": [{ "size": "3" }, { "size": "3" }, { "size": "1536" }, { "size": "1" }]
              }
            }
          },
          "dtype": { "type": "DT_FLOAT" }
        }
      },
      {
        "name": "StatefulPartitionedCall/efficientnetv2-s/blocks_34/depthwise_conv2d/depthwise_bn_offset",
        "op": "Const",
        "attr": {
          "value": {
            "tensor": { "dtype": "DT_FLOAT", "tensorShape": { "dim": [{ "size": "1536" }] } }
          },
          "dtype": { "type": "DT_FLOAT" }
        }
      },
      {
        "name": "StatefulPartitionedCall/efficientnetv2-s/blocks_34/conv2d_1/Conv2D_weights",
        "op": "Const",
        "attr": {
          "value": {
            "tensor": {
              "dtype": "DT_FLOAT",
              "tensorShape": {
                "dim": [{ "size": "1" }, { "size": "1" }, { "size": "1536" }, { "size": "256" }]
              }
            }
          },
          "dtype": { "type": "DT_FLOAT" }
        }
      },
      {
        "name": "StatefulPartitionedCall/efficientnetv2-s/blocks_34/conv2d_1/Conv2D_bn_offset",
        "op": "Const",
        "attr": {
          "value": {
            "tensor": { "dtype": "DT_FLOAT", "tensorShape": { "dim": [{ "size": "256" }] } }
          },
          "dtype": { "type": "DT_FLOAT" }
        }
      },
      {
        "name": "StatefulPartitionedCall/efficientnetv2-s/stem/tpu_batch_normalization/FusedBatchNormV3",
        "op": "_FusedConv2D",
        "input": [
          "input_1",
          "StatefulPartitionedCall/efficientnetv2-s/stem/conv2d/Conv2D_weights",
          "StatefulPartitionedCall/efficientnetv2-s/stem/conv2d/Conv2D_bn_offset"
        ],
        "device": "/device:CPU:0",
        "attr": {
          "num_host_args": { "i": "0" },
          "data_format": { "s": "TkhXQw==" },
          "filter_format": { "s": "SFdJTw==" },
          "strides": { "list": { "i": ["1", "2", "2", "1"] } },
          "num_args": { "i": "1" },
          "fused_ops": { "list": { "s": ["Qmlhc0FkZA=="] } },
          "TArgs": { "list": { "type": ["DT_FLOAT"] } },
          "padding": { "s": "U0FNRQ==" },
          "use_cudnn_on_gpu": { "b": true },
          "leakyrelu_alpha": { "f": 0.2 },
          "epsilon": { "f": 0.0 },
          "T": { "type": "DT_FLOAT" },
          "explicit_paddings": { "list": {} },
          "dilations": { "list": { "i": ["1", "1", "1", "1"] } }
        }
      },
      {
        "name": "StatefulPartitionedCall/efficientnetv2-s/stem/Sigmoid",
        "op": "Sigmoid",
        "input": [
          "StatefulPartitionedCall/efficientnetv2-s/stem/tpu_batch_normalization/FusedBatchNormV3"
        ],
        "attr": { "T": { "type": "DT_FLOAT" } }
      },
      {
        "name": "StatefulPartitionedCall/efficientnetv2-s/stem/mul",
        "op": "Mul",
        "input": [
          "StatefulPartitionedCall/efficientnetv2-s/stem/tpu_batch_normalization/FusedBatchNormV3",
          "StatefulPartitionedCall/efficientnetv2-s/stem/Sigmoid"
        ],
        "attr": { "T": { "type": "DT_FLOAT" } }
      },
      {
        "name": "StatefulPartitionedCall/efficientnetv2-s/blocks_0/tpu_batch_normalization/FusedBatchNormV3",
        "op": "_FusedConv2D",
        "input": [
          "StatefulPartitionedCall/efficientnetv2-s/stem/mul",
          "StatefulPartitionedCall/efficientnetv2-s/blocks_0/conv2d/Conv2D_weights",
          "StatefulPartitionedCall/efficientnetv2-s/blocks_0/conv2d/Conv2D_bn_offset"
        ],
        "device": "/device:CPU:0",
        "attr": {
          "num_host_args": { "i": "0" },
          "data_format": { "s": "TkhXQw==" },
          "filter_format": { "s": "SFdJTw==" },
          "strides": { "list": { "i": ["1", "1", "1", "1"] } },
          "num_args": { "i": "1" },
          "fused_ops": { "list": { "s": ["Qmlhc0FkZA=="] } },
          "TArgs": { "list": { "type": ["DT_FLOAT"] } },
          "padding": { "s": "U0FNRQ==" },
          "use_cudnn_on_gpu": { "b": true },
          "leakyrelu_alpha": { "f": 0.2 },
          "epsilon": { "f": 0.0 },
          "T": { "type": "DT_FLOAT" },
          "explicit_paddings": { "list": {} },
          "dilations": { "list": { "i": ["1", "1", "1", "1"] } }
        }
      },
      {
…
          "shape": [1, 1, 960, 40],
          "dtype": "float32"
        },
        {
          "name": "StatefulPartitionedCall/efficientnetv2-s/blocks_20/se/conv2d/BiasAdd/ReadVariableOp",
          "shape": [40],
          "dtype": "float32"
        },
        {
          "name": "StatefulPartitionedCall/efficientnetv2-s/blocks_20/se/conv2d_1/Conv2D/ReadVariableOp",
          "shape": [1, 1, 40, 960],
          "dtype": "float32"
        },
        {
          "name": "StatefulPartitionedCall/efficientnetv2-s/blocks_20/se/conv2d_1/BiasAdd/ReadVariableOp",
          "shape": [960],
          "dtype": "float32"
        },
        {
          "name": "StatefulPartitionedCall/efficientnetv2-s/blocks_19/se/Mean/reduction_indices",
          "shape": [2],
          "dtype": "int32"
        },
        {
          "name": "StatefulPartitionedCall/efficientnetv2-s/blocks_19/se/conv2d/Conv2D/ReadVariableOp",
          "shape": [1, 1, 960, 40],
          "dtype": "float32"
        },
        {
          "name": "StatefulPartitionedCall/efficientnetv2-s/blocks_19/se/conv2d/BiasAdd/ReadVariableOp",
          "shape": [40],
          "dtype": "float32"
        },
        {
          "name": "StatefulPartitionedCall/efficientnetv2-s/blocks_19/se/conv2d_1/Conv2D/ReadVariableOp",
          "shape": [1, 1, 40, 960],
          "dtype": "float32"
        },
        {
          "name": "StatefulPartitionedCall/efficientnetv2-s/blocks_19/se/conv2d_1/BiasAdd/ReadVariableOp",
          "shape": [960],
          "dtype": "float32"
        },
        {
          "name": "StatefulPartitionedCall/efficientnetv2-s/blocks_18/se/Mean/reduction_indices",
          "shape": [2],
          "dtype": "int32"
        },
        {
          "name": "StatefulPartitionedCall/efficientnetv2-s/blocks_18/se/conv2d/Conv2D/ReadVariableOp",
          "shape": [1, 1, 960, 40],
          "dtype": "float32"
        },
        {
          "name": "StatefulPartitionedCall/efficientnetv2-s/blocks_18/se/conv2d/BiasAdd/ReadVariableOp",
          "shape": [40],
          "dtype": "float32"
        },
        {
          "name": "StatefulPartitionedCall/efficientnetv2-s/blocks_18/se/conv2d_1/Conv2D/ReadVariableOp",
          "shape": [1, 1, 40, 960],
          "dtype": "float32"
        },
        {
          "name": "StatefulPartitionedCall/efficientnetv2-s/blocks_18/se/conv2d_1/BiasAdd/ReadVariableOp",
          "shape": [960],
          "dtype": "float32"
        },
        {
          "name": "StatefulPartitionedCall/efficientnetv2-s/blocks_17/se/Mean/reduction_indices",
          "shape": [2],
          "dtype": "int32"
        },
        {
          "name": "StatefulPartitionedCall/efficientnetv2-s/blocks_17/se/conv2d/Conv2D/ReadVariableOp",
          "shape": [1, 1, 960, 40],
          "dtype": "float32"
        },
        {
          "name": "StatefulPartitionedCall/efficientnetv2-s/blocks_17/se/conv2d/BiasAdd/ReadVariableOp",
          "shape": [40],
          "dtype": "float32"
        },
        {
          "name": "StatefulPartitionedCall/efficientnetv2-s/blocks_17/se/conv2d_1/Conv2D/ReadVariableOp",
          "shape": [1, 1, 40, 960],
          "dtype": "float32"
        },
        {
          "name": "StatefulPartitionedCall/efficientnetv2-s/blocks_17/se/conv2d_1/BiasAdd/ReadVariableOp",
          "shape": [960],
          "dtype": "float32"
        },
        {
          "name": "StatefulPartitionedCall/efficientnetv2-s/blocks_16/se/Mean/reduction_indices",
          "shape": [2],
          "dtype": "int32"
        },
        {
          "name": "StatefulPartitionedCall/efficientnetv2-s/blocks_16/se/conv2d/Conv2D/ReadVariableOp",
          "shape": [1, 1, 768, 32],
          "dtype": "float32"
        },
        {
          "name": "StatefulPartitionedCall/efficientnetv2-s/blocks_16/se/conv2d/BiasAdd/ReadVariableOp",
          "shape": [32],
          "dtype": "float32"
        },
        {
          "name": "StatefulPartitionedCall/efficientnetv2-s/blocks_16/se/conv2d_1/Conv2D/ReadVariableOp",
          "shape": [1, 1, 32, 768],
          "dtype": "float32"
        },
        {
          "name": "StatefulPartitionedCall/efficientnetv2-s/blocks_16/se/conv2d_1/BiasAdd/ReadVariableOp",
          "shape": [768],
          "dtype": "float32"
        },
        {
          "name": "StatefulPartitionedCall/efficientnetv2-s/blocks_15/se/Mean/reduction_indices",
          "shape": [2],
          "dtype": "int32"
        },
        {
          "name": "StatefulPartitionedCall/efficientnetv2-s/blocks_15/se/conv2d/Conv2D/ReadVariableOp",
          "shape": [1, 1, 512, 32],
          "dtype": "float32"
        },
        {
          "name": "StatefulPartitionedCall/efficientnetv2-s/blocks_15/se/conv2d/BiasAdd/ReadVariableOp",
          "shape": [32],
          "dtype": "float32"
        },
        {
          "name": "StatefulPartitionedCall/efficientnetv2-s/blocks_15/se/conv2d_1/Conv2D/ReadVariableOp",
          "shape": [1, 1, 32, 512],
          "dtype": "float32"
        },
        {
          "name": "StatefulPartitionedCall/efficientnetv2-s/blocks_15/se/conv2d_1/BiasAdd/ReadVariableOp",
          "shape": [512],
          "dtype": "float32"
        },
        {
          "name": "StatefulPartitionedCall/efficientnetv2-s/blocks_14/se/Mean/reduction_indices",
          "shape": [2],
          "dtype": "int32"
        },
        {
          "name": "StatefulPartitionedCall/efficientnetv2-s/blocks_14/se/conv2d/Conv2D/ReadVariableOp",
          "shape": [1, 1, 512, 32],
          "dtype": "float32"
        },
        {
          "name": "StatefulPartitionedCall/efficientnetv2-s/blocks_14/se/conv2d/BiasAdd/ReadVariableOp",
          "shape": [32],
          "dtype": "float32"
        },
        {
          "name": "StatefulPartitionedCall/efficientnetv2-s/blocks_14/se/conv2d_1/Conv2D/ReadVariableOp",
          "shape": [1, 1, 32, 512],
          "dtype": "float32"
        },
        {
          "name": "StatefulPartitionedCall/efficientnetv2-s/blocks_14/se/conv2d_1/BiasAdd/ReadVariableOp",
          "shape": [512],
          "dtype": "float32"
        },
        {
          "name": "StatefulPartitionedCall/efficientnetv2-s/blocks_13/se/Mean/reduction_indices",
          "shape": [2],
          "dtype": "int32"
        },
        {
          "name": "StatefulPartitionedCall/efficientnetv2-s/blocks_13/se/conv2d/Conv2D/ReadVariableOp",
          "shape": [1, 1, 512, 32],
          "dtype": "float32"
        },
        {
          "name": "StatefulPartitionedCall/efficientnetv2-s/blocks_13/se/conv2d/BiasAdd/ReadVariableOp",
          "shape": [32],
          "dtype": "float32"
        },
        {
          "name": "StatefulPartitionedCall/efficientnetv2-s/blocks_13/se/conv2d_1/Conv2D/ReadVariableOp",
          "shape": [1, 1, 32, 512],
          "dtype": "float32"
        },
        {
          "name": "StatefulPartitionedCall/efficientnetv2-s/blocks_13/se/conv2d_1/BiasAdd/ReadVariableOp",
          "shape": [512],
          "dtype": "float32"
        },
        {
          "name": "StatefulPartitionedCall/efficientnetv2-s/blocks_12/se/Mean/reduction_indices",
          "shape": [2],
          "dtype": "int32"
        },
        {
          "name": "StatefulPartitionedCall/efficientnetv2-s/blocks_12/se/conv2d/Conv2D/ReadVariableOp",
          "shape": [1, 1, 512, 32],
          "dtype": "float32"
        },
        {
          "name": "StatefulPartitionedCall/efficientnetv2-s/blocks_12/se/conv2d/BiasAdd/ReadVariableOp",
          "shape": [32],
          "dtype": "float32"
        },
        {
          "name": "StatefulPartitionedCall/efficientnetv2-s/blocks_12/se/conv2d_1/Conv2D/ReadVariableOp",
          "shape": [1, 1, 32, 512],
          "dtype": "float32"
        },
        {
          "name": "StatefulPartitionedCall/efficientnetv2-s/blocks_12/se/conv2d_1/BiasAdd/ReadVariableOp",
          "shape": [512],
          "dtype": "float32"
        },
        {
          "name": "StatefulPartitionedCall/efficientnetv2-s/blocks_11/se/Mean/reduction_indices",
          "shape": [2],
          "dtype": "int32"
        },
        {
          "name": "StatefulPartitionedCall/efficientnetv2-s/blocks_11/se/conv2d/Conv2D/ReadVariableOp",
          "shape": [1, 1, 512, 32],
          "dtype": "float32"
        },
        {
          "name": "StatefulPartitionedCall/efficientnetv2-s/blocks_11/se/conv2d/BiasAdd/ReadVariableOp",
          "shape": [32],
          "dtype": "float32"
        },
        {
          "name": "StatefulPartitionedCall/efficientnetv2-s/blocks_11/se/conv2d_1/Conv2D/ReadVariableOp",
          "shape": [1, 1, 32, 512],
          "dtype": "float32"
        },
        {
          "name": "StatefulPartitionedCall/efficientnetv2-s/blocks_11/se/conv2d_1/BiasAdd/ReadVariableOp",
          "shape": [512],
          "dtype": "float32"
        },
        {
          "name": "StatefulPartitionedCall/efficientnetv2-s/blocks_10/se/Mean/reduction_indices",
          "shape": [2],
          "dtype": "int32"
        },
        {
          "name": "StatefulPartitionedCall/efficientnetv2-s/blocks_10/se/conv2d/Conv2D/ReadVariableOp",
          "shape": [1, 1, 256, 16],
          "dtype": "float32"
        },
        {
          "name": "StatefulPartitionedCall/efficientnetv2-s/blocks_10/se/conv2d/BiasAdd/ReadVariableOp",
          "shape": [16],
          "dtype": "float32"
        },
        {
          "name": "StatefulPartitionedCall/efficientnetv2-s/blocks_10/se/conv2d_1/Conv2D/ReadVariableOp",
          "shape": [1, 1, 16, 256],
          "dtype": "float32"
        },
        {
          "name": "StatefulPartitionedCall/efficientnetv2-s/blocks_10/se/conv2d_1/BiasAdd/ReadVariableOp",
          "shape": [256],
          "dtype": "float32"
        },
        {
          "name": "StatefulPartitionedCall/efficientnetv2-s/head/global_average_pooling2d/Mean/reduction_indices",
          "shape": [2],
          "dtype": "int32"
        },
        {
          "name": "StatefulPartitionedCall/efficientnetv2-s/head/dense/MatMul/ReadVariableOp",
          "shape": [1280, 1000],
          "dtype": "float32"
        },
        {
          "name": "StatefulPartitionedCall/efficientnetv2-s/head/dense/BiasAdd/ReadVariableOp",
          "shape": [1000],
          "dtype": "float32"
        },
        {
          "name": "StatefulPartitionedCall/efficientnetv2-s/stem/conv2d/Conv2D_weights",
          "shape": [3, 3, 3, 24],
          "dtype": "float32"
        },
        {
          "name": "StatefulPartitionedCall/efficientnetv2-s/stem/conv2d/Conv2D_bn_offset",
          "shape": [24],
          "dtype": "float32"
        },
        {
          "name": "StatefulPartitionedCall/efficientnetv2-s/blocks_0/conv2d/Conv2D_weights",
          "shape": [3, 3, 24, 24],
          "dtype": "float32"
        },
        {
          "name": "StatefulPartitionedCall/efficientnetv2-s/blocks_35/conv2d/Conv2D_weights",
          "shape": [1, 1, 256, 1536],
          "dtype": "float32"
        },
        {
          "name": "StatefulPartitionedCall/efficientnetv2-s/blocks_0/conv2d/Conv2D_bn_offset",
          "shape": [24],
          "dtype": "float32"
        },
        {
          "name": "StatefulPartitionedCall/efficientnetv2-s/blocks_1/conv2d/Conv2D_weights",
          "shape": [3, 3, 24, 24],
          "dtype": "float32"
        },
        {
          "name": "StatefulPartitionedCall/efficientnetv2-s/blocks_1/conv2d/Conv2D_bn_offset",
          "shape": [24],
          "dtype": "float32"
        },
        {
          "name": "StatefulPartitionedCall/efficientnetv2-s/blocks_2/conv2d/Conv2D_weights",
          "shape": [3, 3, 24, 96],
          "dtype": "float32"
        },
        {
          "name": "StatefulPartitionedCall/efficientnetv2-s/blocks_35/conv2d/Conv2D_bn_offset",
          "shape": [1536],
          "dtype": "float32"
        },
        {
          "name": "StatefulPartitionedCall/efficientnetv2-s/blocks_2/conv2d/Conv2D_bn_offset",
          "shape": [96],
          "dtype": "float32"
        },
        {
          "name": "StatefulPartitionedCall/efficientnetv2-s/blocks_2/conv2d_1/Conv2D_weights",
          "shape": [1, 1, 96, 48],
          "dtype": "float32"
        },
        {
          "name": "StatefulPartitionedCall/efficientnetv2-s/blocks_2/conv2d_1/Conv2D_bn_offset",
          "shape": [48],
          "dtype": "float32"
        },
        {
          "name": "StatefulPartitionedCall/efficientnetv2-s/blocks_3/conv2d/Conv2D_weights",
          "shape": [3, 3, 48, 192],
          "dtype": "float32"
        },
        {
          "name": "StatefulPartitionedCall/efficientnetv2-s/blocks_3/conv2d/Conv2D_bn_offset",
          "shape": [192],
          "dtype": "float32"
        },
        {
          "name": "StatefulPartitionedCall/efficientnetv2-s/blocks_3/conv2d_1/Conv2D_weights",
          "shape": [1, 1, 192, 48],
          "dtype": "float32"
        },
        {
          "name": "StatefulPartitionedCall/efficientnetv2-s/blocks_3/conv2d_1/Conv2D_bn_offset",
          "shape": [48],
          "dtype": "float32"
        },
        {
          "name": "StatefulPartitionedCall/efficientnetv2-s/blocks_4/conv2d/Conv2D_weights",
          "shape": [3, 3, 48, 192],
          "dtype": "float32"
        },
        {
          "name": "StatefulPartitionedCall/efficientnetv2-s/blocks_35/depthwise_conv2d/depthwise_weights",
          "shape": [3, 3, 1536, 1],
          "dtype": "float32"
        },
        {
          "name": "StatefulPartitionedCall/efficientnetv2-s/blocks_4/conv2d/Conv2D_bn_offset",
          "shape": [192],
          "dtype": "float32"
        },
        {
          "name": "StatefulPartitionedCall/efficientnetv2-s/blocks_4/conv2d_1/Conv2D_weights",
          "shape": [1, 1, 192, 48],
          "dtype": "float32"
        },
        {
          "name": "StatefulPartitionedCall/efficientnetv2-s/blocks_4/conv2d_1/Conv2D_bn_offset",
          "shape": [48],
          "dtype": "float32"
        },
        {
          "name": "StatefulPartitionedCall/efficientnetv2-s/blocks_5/conv2d/Conv2D_weights",
          "shape": [3, 3, 48, 192],
          "dtype": "float32"
        },
        {
          "name": "StatefulPartitionedCall/efficientnetv2-s/blocks_35/depthwise_conv2d/depthwise_bn_offset",
          "shape": [1536],
          "dtype": "float32"
        },
        {
          "name": "StatefulPartitionedCall/efficientnetv2-s/blocks_5/conv2d/Conv2D_bn_offset",
          "shape": [192],
          "dtype": "float32"
        },
        {
          "name": "StatefulPartitionedCall/efficientnetv2-s/blocks_5/conv2d_1/Conv2D_weights",
          "shape": [1, 1, 192, 48],
          "dtype": "float32"
        },
        {
          "name": "StatefulPartitionedCall/efficientnetv2-s/blocks_5/conv2d_1/Conv2D_bn_offset",
          "shape": [48],
          "dtype": "float32"
        },
        {
          "name": "StatefulPartitionedCall/efficientnetv2-s/blocks_6/conv2d/Conv2D_weights",
          "shape": [3, 3, 48, 192],
          "dtype": "float32"
        },
        {
          "name": "StatefulPartitionedCall/efficientnetv2-s/blocks_6/conv2d/Conv2D_bn_offset",
          "shape": [192],
          "dtype": "float32"
        },
        {
          "name": "StatefulPartitionedCall/efficientnetv2-s/blocks_6/conv2d_1/Conv2D_weights",
          "shape": [1, 1, 192, 64],
          "dtype": "float32"
        },
        {
          "name": "StatefulPartitionedCall/efficientnetv2-s/blocks_6/conv2d_1/Conv2D_bn_offset",
          "shape": [64],
          "dtype": "float32"
        },
        {
          "name": "StatefulPartitionedCall/efficientnetv2-s/blocks_7/conv2d/Conv2D_weights",
          "shape": [3, 3, 64, 256],
          "dtype": "float32"
        },
        {
          "name": "StatefulPartitionedCall/efficientnetv2-s/blocks_7/conv2d/Conv2D_bn_offset",
          "shape": [256],
          "dtype": "float32"
        },
        {
          "name": "StatefulPartitionedCall/efficientnetv2-s/blocks_7/conv2d_1/Conv2D_weights",
          "shape": [1, 1, 256, 64],
          "dtype": "float32"
        },
        {
          "name": "StatefulPartitionedCall/efficientnetv2-s/blocks_7/conv2d_1/Conv2D_bn_offset",
          "shape": [64],
          "dtype": "float32"
        },
        {
          "name": "StatefulPartitionedCall/efficientnetv2-s/blocks_8/conv2d/Conv2D_weights",
          "shape": [3, 3, 64, 256],
          "dtype": "float32"
        },
        {
          "name": "StatefulPartitionedCall/efficientnetv2-s/blocks_8/conv2d/Conv2D_bn_offset",
          "shape": [256],
          "dtype": "float32"
        },
        {
          "name": "StatefulPartitionedCall/efficientnetv2-s/blocks_8/conv2d_1/Conv2D_weights",
          "shape": [1, 1, 256, 64],
          "dtype": "float32"
        },
        {
          "name": "StatefulPartitionedCall/efficientnetv2-s/blocks_8/conv2d_1/Conv2D_bn_offset",
          "shape": [64],
          "dtype": "float32"
        },
        {
          "name": "StatefulPartitionedCall/efficientnetv2-s/blocks_9/conv2d/Conv2D_weights",
          "shape": [3, 3, 64, 256],
          "dtype": "float32"
        },
        {
          "name": "StatefulPartitionedCall/efficientnetv2-s/blocks_9/conv2d/Conv2D_bn_offset",
          "shape": [256],
          "dtype": "float32"
        },
        {
          "name": "StatefulPartitionedCall/efficientnetv2-s/blocks_9/conv2d_1/Conv2D_weights",
          "shape": [1, 1, 256, 64],
          "dtype": "float32"
        },
        {
          "name": "StatefulPartitionedCall/efficientnetv2-s/blocks_9/conv2d_1/Conv2D_bn_offset",
          "shape": [64],
          "dtype": "float32"
        },
        {
          "name": "StatefulPartitionedCall/efficientnetv2-s/blocks_10/conv2d/Conv2D_weights",
          "shape": [1, 1, 64, 256],
          "dtype": "float32"
        },
        {
          "name": "StatefulPartitionedCall/efficientnetv2-s/blocks_10/conv2d/Conv2D_bn_offset",
          "shape": [256],
          "dtype": "float32"
        },
        {
          "name": "StatefulPartitionedCall/efficientnetv2-s/blocks_10/depthwise_conv2d/depthwise_weights",
          "shape": [3, 3, 256, 1],
          "dtype": "float32"
        },
        {
          "name": "StatefulPartitionedCall/efficientnetv2-s/blocks_10/depthwise_conv2d/depthwise_bn_offset",
          "shape": [256],
          "dtype": "float32"
        },
        {
          "name": "StatefulPartitionedCall/efficientnetv2-s/blocks_10/conv2d_1/Conv2D_weights",
          "shape": [1, 1, 256, 128],
          "dtype": "float32"
        },
        {
          "name": "StatefulPartitionedCall/efficientnetv2-s/blocks_35/conv2d_1/Conv2D_weights",
          "shape": [1, 1, 1536, 256],
          "dtype": "float32"
        },
        {
          "name": "StatefulPartitionedCall/efficientnetv2-s/blocks_10/conv2d_1/Conv2D_bn_offset",
          "shape": [128],
          "dtype": "float32"
        },
        {
          "name": "StatefulPartitionedCall/efficientnetv2-s/blocks_11/conv2d/Conv2D_weights",
          "shape": [1, 1, 128, 512],
          "dtype": "float32"
        },
        {
          "name": "StatefulPartitionedCall/efficientnetv2-s/blocks_11/conv2d/Conv2D_bn_offset",
          "shape": [512],
          "dtype": "float32"
        },
        {
          "name": "StatefulPartitionedCall/efficientnetv2-s/blocks_11/depthwise_conv2d/depthwise_weights",
          "shape": [3, 3, 512, 1],
          "dtype": "float32"
        },
        {
          "name": "StatefulPartitionedCall/efficientnetv2-s/blocks_11/depthwise_conv2d/depthwise_bn_offset",
          "shape": [512],
          "dtype": "float32"
        },
        {
          "name": "StatefulPartitionedCall/efficientnetv2-s/blocks_35/conv2d_1/Conv2D_bn_offset",
          "shape": [256],
          "dtype": "float32"
        },
        {
          "name": "StatefulPartitionedCall/efficientnetv2-s/blocks_11/conv2d_1/Conv2D_weights",
          "shape": [1, 1, 512, 128],
          "dtype": "float32"
        },
        {
          "name": "StatefulPartitionedCall/efficientnetv2-s/blocks_11/conv2d_1/Conv2D_bn_offset",
          "shape": [128],
          "dtype": "float32"
        },
        {
          "name": "StatefulPartitionedCall/efficientnetv2-s/blocks_12/conv2d/Conv2D_weights",
          "shape": [1, 1, 128, 512],
          "dtype": "float32"
        },
        {
          "name": "StatefulPartitionedCall/efficientnetv2-s/blocks_36/conv2d/Conv2D_weights",
          "shape": [1, 1, 256, 1536],
          "dtype": "float32"
        },
        {
          "name": "StatefulPartitionedCall/efficientnetv2-s/blocks_12/conv2d/Conv2D_bn_offset",
          "shape": [512],
          "dtype": "float32"
        },
        {
          "name": "StatefulPartitionedCall/efficientnetv2-s/blocks_12/depthwise_conv2d/depthwise_weights",
          "shape": [3, 3, 512, 1],
          "dtype": "float32"
        },
        {
          "name": "StatefulPartitionedCall/efficientnetv2-s/blocks_12/depthwise_conv2d/depthwise_bn_offset",
          "shape": [512],
          "dtype": "float32"
        },
        {
          "name": "StatefulPartitionedCall/efficientnetv2-s/blocks_36/conv2d/Conv2D_bn_offset",
          "shape": [1536],
          "dtype": "float32"
        },
        {
          "name": "StatefulPartitionedCall/efficientnetv2-s/blocks_12/conv2d_1/Conv2D_weights",
          "shape": [1, 1, 512, 128],
          "dtype": "float32"
        },
        {
          "name": "StatefulPartitionedCall/efficientnetv2-s/blocks_12/conv2d_1/Conv2D_bn_offset",
          "shape": [128],
          "dtype": "float32"
        },
        {
          "name": "StatefulPartitionedCall/efficientnetv2-s/blocks_13/conv2d/Conv2D_weights",
          "shape": [1, 1, 128, 512],
          "dtype": "float32"
        },
        {
          "name": "StatefulPartitionedCall/efficientnetv2-s/blocks_13/conv2d/Conv2D_bn_offset",
          "shape": [512],
          "dtype": "float32"
        },
        {
          "name": "StatefulPartitionedCall/efficientnetv2-s/blocks_13/depthwise_conv2d/depthwise_weights",
          "shape": [3, 3, 512, 1],
          "dtype": "float32"
        },
        {
          "name": "StatefulPartitionedCall/efficientnetv2-s/blocks_13/depthwise_conv2d/depthwise_bn_offset",
          "shape": [512],
          "dtype": "float32"
        },
        {
          "name": "StatefulPartitionedCall/efficientnetv2-s/blocks_36/depthwise_conv2d/depthwise_weights",
          "shape": [3, 3, 1536, 1],
          "dtype": "float32"
        },
        {
          "name": "StatefulPartitionedCall/efficientnetv2-s/blocks_13/conv2d_1/Conv2D_weights",
          "shape": [1, 1, 512, 128],
          "dtype": "float32"
        },
        {
          "name": "StatefulPartitionedCall/efficientnetv2-s/blocks_13/conv2d_1/Conv2D_bn_offset",
          "shape": [128],
          "dtype": "float32"
        },
        {
          "name": "StatefulPartitionedCall/efficientnetv2-s/blocks_14/conv2d/Conv2D_weights",
          "shape": [1, 1, 128, 512],
          "dtype": "float32"
        },
        {
          "name": "StatefulPartitionedCall/efficientnetv2-s/blocks_36/depthwise_conv2d/depthwise_bn_offset",
          "shape": [1536],
          "dtype": "float32"
        },
        {
          "name": "StatefulPartitionedCall/efficientnetv2-s/blocks_14/conv2d/Conv2D_bn_offset",
          "shape": [512],
          "dtype": "float32"
        },
        {
          "name": "StatefulPartitionedCall/efficientnetv2-s/blocks_14/depthwise_conv2d/depthwise_weights",
          "shape": [3, 3, 512, 1],
          "dtype": "float32"
        },
        {
          "name": "StatefulPartitionedCall/efficientnetv2-s/blocks_14/depthwise_conv2d/depthwise_bn_offset",
          "shape": [512],
          "dtype": "float32"
        },
        {
          "name": "StatefulPartitionedCall/efficientnetv2-s/blocks_14/conv2d_1/Conv2D_weights",
          "shape": [1, 1, 512, 128],
          "dtype": "float32"
        },
        {
          "name": "StatefulPartitionedCall/efficientnetv2-s/blocks_14/conv2d_1/Conv2D_bn_offset",
          "shape": [128],
          "dtype": "float32"
        },
        {
          "name": "StatefulPartitionedCall/efficientnetv2-s/blocks_15/conv2d/Conv2D_weights",
          "shape": [1, 1, 128, 512],
          "dtype": "float32"
        },
        {
          "name": "StatefulPartitionedCall/efficientnetv2-s/blocks_15/conv2d/Conv2D_bn_offset",
          "shape": [512],
          "dtype": "float32"
        },
        {
          "name": "StatefulPartitionedCall/efficientnetv2-s/blocks_15/depthwise_conv2d/depthwise_weights",
          "shape": [3, 3, 512, 1],
          "dtype": "float32"
        },
        {
          "name": "StatefulPartitionedCall/efficientnetv2-s/blocks_15/depthwise_conv2d/depthwise_bn_offset",
          "shape": [512],
          "dtype": "float32"
        },
        {
          "name": "StatefulPartitionedCall/efficientnetv2-s/blocks_15/conv2d_1/Conv2D_weights",
          "shape": [1, 1, 512, 128],
          "dtype": "float32"
        },
        {
          "name": "StatefulPartitionedCall/efficientnetv2-s/blocks_15/conv2d_1/Conv2D_bn_offset",
          "shape": [128],
          "dtype": "float32"
        },
        {
          "name": "StatefulPartitionedCall/efficientnetv2-s/blocks_16/conv2d/Conv2D_weights",
          "shape": [1, 1, 128, 768],
          "dtype": "float32"
        },
        {
          "name": "StatefulPartitionedCall/efficientnetv2-s/blocks_16/conv2d/Conv2D_bn_offset",
          "shape": [768],
          "dtype": "float32"
        },
        {
          "name": "StatefulPartitionedCall/efficientnetv2-s/blocks_16/depthwise_conv2d/depthwise_weights",
          "shape": [3, 3, 768, 1],
          "dtype": "float32"
        },
        {
          "name": "StatefulPartitionedCall/efficientnetv2-s/blocks_16/depthwise_conv2d/depthwise_bn_offset",
          "shape": [768],
          "dtype": "float32"
        },
        {
          "name": "StatefulPartitionedCall/efficientnetv2-s/blocks_16/conv2d_1/Conv2D_weights",
          "shape": [1, 1, 768, 160],
          "dtype": "float32"
        },
        {
          "name": "StatefulPartitionedCall/efficientnetv2-s/blocks_16/conv2d_1/Conv2D_bn_offset",
          "shape": [160],
          "dtype": "float32"
        },
        {
          "name": "StatefulPartitionedCall/efficientnetv2-s/blocks_17/conv2d/Conv2D_weights",
          "shape": [1, 1, 160, 960],
          "dtype": "float32"
        },
        {
          "name": "StatefulPartitionedCall/efficientnetv2-s/blocks_17/conv2d/Conv2D_bn_offset",
          "shape": [960],
          "dtype": "float32"
        },
        {
          "name": "StatefulPartitionedCall/efficientnetv2-s/blocks_17/depthwise_conv2d/depthwise_weights",
          "shape": [3, 3, 960, 1],
          "dtype": "float32"
        },
        {
          "name": "StatefulPartitionedCall/efficientnetv2-s/blocks_17/depthwise_conv2d/depthwise_bn_offset",
          "shape": [960],
          "dtype": "float32"
        },
        {
          "name": "StatefulPartitionedCall/efficientnetv2-s/blocks_36/conv2d_1/Conv2D_weights",
          "shape": [1, 1, 1536, 256],
          "dtype": "float32"
        },
        {
          "name": "StatefulPartitionedCall/efficientnetv2-s/blocks_39/conv2d_1/Conv2D_weights",
          "shape": [1, 1, 1536, 256],
          "dtype": "float32"
        },
        {
          "name": "StatefulPartitionedCall/efficientnetv2-s/blocks_17/conv2d_1/Conv2D_weights",
          "shape": [1, 1, 960, 160],
          "dtype": "float32"
        },
        {
          "name": "StatefulPartitionedCall/efficientnetv2-s/blocks_36/conv2d_1/Conv2D_bn_offset",
          "shape": [256],
          "dtype": "float32"
        },
        {
          "name": "StatefulPartitionedCall/efficientnetv2-s/blocks_17/conv2d_1/Conv2D_bn_offset",
          "shape": [160],
          "dtype": "float32"
        },
        {
          "name": "StatefulPartitionedCall/efficientnetv2-s/blocks_18/conv2d/Conv2D_weights",
          "shape": [1, 1, 160, 960],
          "dtype": "float32"
        },
        {
          "name": "StatefulPartitionedCall/efficientnetv2-s/blocks_18/conv2d/Conv2D_bn_offset",
          "shape": [960],
          "dtype": "float32"
        },
        {
          "name": "StatefulPartitionedCall/efficientnetv2-s/blocks_18/depthwise_conv2d/depthwise_weights",
          "shape": [3, 3, 960, 1],
          "dtype": "float32"
        },
        {
          "name": "StatefulPartitionedCall/efficientnetv2-s/blocks_18/depthwise_conv2d/depthwise_bn_offset",
          "shape": [960],
          "dtype": "float32"
        },
        {
          "name": "StatefulPartitionedCall/efficientnetv2-s/blocks_37/conv2d/Conv2D_weights",
          "shape": [1, 1, 256, 1536],
          "dtype": "float32"
        },
        {
          "name": "StatefulPartitionedCall/efficientnetv2-s/blocks_18/conv2d_1/Conv2D_weights",
          "shape": [1, 1, 960, 160],
          "dtype": "float32"
        },
        {
          "name": "StatefulPartitionedCall/efficientnetv2-s/blocks_18/conv2d_1/Conv2D_bn_offset",
          "shape": [160],
          "dtype": "float32"
        },
        {
          "name": "StatefulPartitionedCall/efficientnetv2-s/blocks_19/conv2d/Conv2D_weights",
          "shape": [1, 1, 160, 960],
          "dtype": "float32"
        },
        {
          "name": "StatefulPartitionedCall/efficientnetv2-s/blocks_37/conv2d/Conv2D_bn_offset",
          "shape": [1536],
          "dtype": "float32"
        },
        {
          "name": "StatefulPartitionedCall/efficientnetv2-s/blocks_19/conv2d/Conv2D_bn_offset",
          "shape": [960],
          "dtype": "float32"
        },
        {
          "name": "StatefulPartitionedCall/efficientnetv2-s/blocks_19/depthwise_conv2d/depthwise_weights",
          "shape": [3, 3, 960, 1],
          "dtype": "float32"
        },
        {
          "name": "StatefulPartitionedCall/efficientnetv2-s/blocks_19/depthwise_conv2d/depthwise_bn_offset",
          "shape": [960],
          "dtype": "float32"
        },
        {
          "name": "StatefulPartitionedCall/efficientnetv2-s/blocks_19/conv2d_1/Conv2D_weights",
          "shape": [1, 1, 960, 160],
          "dtype": "float32"
        },
        {
          "name": "StatefulPartitionedCall/efficientnetv2-s/blocks_19/conv2d_1/Conv2D_bn_offset",
          "shape": [160],
          "dtype": "float32"
        },
        {
          "name": "StatefulPartitionedCall/efficientnetv2-s/blocks_20/conv2d/Conv2D_weights",
          "shape": [1, 1, 160, 960],
          "dtype": "float32"
        },
        {
          "name": "StatefulPartitionedCall/efficientnetv2-s/blocks_37/depthwise_conv2d/depthwise_weights",
          "shape": [3, 3, 1536, 1],
          "dtype": "float32"
        },
        {
          "name": "StatefulPartitionedCall/efficientnetv2-s/blocks_20/conv2d/Conv2D_bn_offset",
          "shape": [960],
          "dtype": "float32"
        },
        {
          "name": "StatefulPartitionedCall/efficientnetv2-s/blocks_20/depthwise_conv2d/depthwise_weights",
          "shape": [3, 3, 960, 1],
          "dtype": "float32"
        },
        {
          "name": "StatefulPartitionedCall/efficientnetv2-s/blocks_20/depthwise_conv2d/depthwise_bn_offset",
          "shape": [960],
          "dtype": "float32"
        },
        {
          "name": "StatefulPartitionedCall/efficientnetv2-s/blocks_37/depthwise_conv2d/depthwise_bn_offset",
          "shape": [1536],
          "dtype": "float32"
        },
        {
          "name": "StatefulPartitionedCall/efficientnetv2-s/blocks_20/conv2d_1/Conv2D_weights",
          "shape": [1, 1, 960, 160],
          "dtype": "float32"
        },
        {
          "name": "StatefulPartitionedCall/efficientnetv2-s/blocks_20/conv2d_1/Conv2D_bn_offset",
          "shape": [160],
          "dtype": "float32"
        },
        {
          "name": "StatefulPartitionedCall/efficientnetv2-s/blocks_21/conv2d/Conv2D_weights",
          "shape": [1, 1, 160, 960],
          "dtype": "float32"
        },
        {
          "name": "StatefulPartitionedCall/efficientnetv2-s/blocks_21/conv2d/Conv2D_bn_offset",
          "shape": [960],
          "dtype": "float32"
        },
        {
          "name": "StatefulPartitionedCall/efficientnetv2-s/blocks_21/depthwise_conv2d/depthwise_weights",
          "shape": [3, 3, 960, 1],
          "dtype": "float32"
        },
        {
          "name": "StatefulPartitionedCall/efficientnetv2-s/blocks_21/depthwise_conv2d/depthwise_bn_offset",
          "shape": [960],
          "dtype": "float32"
        },
        {
          "name": "StatefulPartitionedCall/efficientnetv2-s/blocks_21/conv2d_1/Conv2D_weights",
          "shape": [1, 1, 960, 160],
          "dtype": "float32"
        },
        {
          "name": "StatefulPartitionedCall/efficientnetv2-s/blocks_39/conv2d_1/Conv2D_bn_offset",
          "shape": [256],
          "dtype": "float32"
        },
        {
          "name": "StatefulPartitionedCall/efficientnetv2-s/blocks_21/conv2d_1/Conv2D_bn_offset",
          "shape": [160],
          "dtype": "float32"
        },
        {
          "name": "StatefulPartitionedCall/efficientnetv2-s/blocks_22/conv2d/Conv2D_weights",
          "shape": [1, 1, 160, 960],
          "dtype": "float32"
        },
        {
          "name": "StatefulPartitionedCall/efficientnetv2-s/blocks_22/conv2d/Conv2D_bn_offset",
          "shape": [960],
          "dtype": "float32"
        },
        {
          "name": "StatefulPartitionedCall/efficientnetv2-s/blocks_22/depthwise_conv2d/depthwise_weights",
          "shape": [3, 3, 960, 1],
          "dtype": "float32"
        },
        {
          "name": "StatefulPartitionedCall/efficientnetv2-s/blocks_22/depthwise_conv2d/depthwise_bn_offset",
          "shape": [960],
          "dtype": "float32"
        },
        {
          "name": "StatefulPartitionedCall/efficientnetv2-s/blocks_22/conv2d_1/Conv2D_weights",
          "shape": [1, 1, 960, 160],
          "dtype": "float32"
        },
        {
          "name": "StatefulPartitionedCall/efficientnetv2-s/blocks_22/conv2d_1/Conv2D_bn_offset",
          "shape": [160],
          "dtype": "float32"
        },
        {
          "name": "StatefulPartitionedCall/efficientnetv2-s/blocks_23/conv2d/Conv2D_weights",
          "shape": [1, 1, 160, 960],
          "dtype": "float32"
        },
        {
          "name": "StatefulPartitionedCall/efficientnetv2-s/blocks_23/conv2d/Conv2D_bn_offset",
          "shape": [960],
          "dtype": "float32"
        },
        {
          "name": "StatefulPartitionedCall/efficientnetv2-s/blocks_23/depthwise_conv2d/depthwise_weights",
          "shape": [3, 3, 960, 1],
          "dtype": "float32"
        },
        {
          "name": "StatefulPartitionedCall/efficientnetv2-s/blocks_23/depthwise_conv2d/depthwise_bn_offset",
          "shape": [960],
          "dtype": "float32"
        },
        {
          "name": "StatefulPartitionedCall/efficientnetv2-s/blocks_23/conv2d_1/Conv2D_weights",
          "shape": [1, 1, 960, 160],
          "dtype": "float32"
        },
        {
          "name": "StatefulPartitionedCall/efficientnetv2-s/blocks_37/conv2d_1/Conv2D_weights",
          "shape": [1, 1, 1536, 256],
          "dtype": "float32"
        },
        {
          "name": "StatefulPartitionedCall/efficientnetv2-s/blocks_23/conv2d_1/Conv2D_bn_offset",
          "shape": [160],
          "dtype": "float32"
        },
        {
          "name": "StatefulPartitionedCall/efficientnetv2-s/blocks_24/conv2d/Conv2D_weights",
          "shape": [1, 1, 160, 960],
          "dtype": "float32"
        },
        {
          "name": "StatefulPartitionedCall/efficientnetv2-s/blocks_24/conv2d/Conv2D_bn_offset",
          "shape": [960],
          "dtype": "float32"
        },
        {
          "name": "StatefulPartitionedCall/efficientnetv2-s/blocks_24/depthwise_conv2d/depthwise_weights",
          "shape": [3, 3, 960, 1],
          "dtype": "float32"
        },
        {
          "name": "StatefulPartitionedCall/efficientnetv2-s/blocks_24/depthwise_conv2d/depthwise_bn_offset",
          "shape": [960],
          "dtype": "float32"
        },
        {
          "name": "StatefulPartitionedCall/efficientnetv2-s/blocks_37/conv2d_1/Conv2D_bn_offset",
          "shape": [256],
          "dtype": "float32"
        },
        {
          "name": "StatefulPartitionedCall/efficientnetv2-s/blocks_24/conv2d_1/Conv2D_weights",
          "shape": [1, 1, 960, 160],
          "dtype": "float32"
        },
        {
          "name": "StatefulPartitionedCall/efficientnetv2-s/blocks_24/conv2d_1/Conv2D_bn_offset",
          "shape": [160],
          "dtype": "float32"
        },
        {
          "name": "StatefulPartitionedCall/efficientnetv2-s/blocks_25/conv2d/Conv2D_weights",
          "shape": [1, 1, 160, 960],
          "dtype": "float32"
        },
        {
          "name": "StatefulPartitionedCall/efficientnetv2-s/blocks_38/conv2d/Conv2D_weights",
          "shape": [1, 1, 256, 1536],
          "dtype": "float32"
        },
        {
          "name": "StatefulPartitionedCall/efficientnetv2-s/blocks_25/conv2d/Conv2D_bn_offset",
          "shape": [960],
          "dtype": "float32"
        },
        {
          "name": "StatefulPartitionedCall/efficientnetv2-s/blocks_25/depthwise_conv2d/depthwise_weights",
          "shape": [3, 3, 960, 1],
          "dtype": "float32"
        },
        {
          "name": "StatefulPartitionedCall/efficientnetv2-s/blocks_25/depthwise_conv2d/depthwise_bn_offset",
          "shape": [960],
          "dtype": "float32"
        },
        {
          "name": "StatefulPartitionedCall/efficientnetv2-s/head/conv2d/Conv2D_weights",
          "shape": [1, 1, 256, 1280],
          "dtype": "float32"
        },
        {
          "name": "StatefulPartitionedCall/efficientnetv2-s/blocks_38/conv2d/Conv2D_bn_offset",
          "shape": [1536],
          "dtype": "float32"
        },
        {
          "name": "StatefulPartitionedCall/efficientnetv2-s/blocks_25/conv2d_1/Conv2D_weights",
          "shape": [1, 1, 960, 256],
          "dtype": "float32"
        },
        {
          "name": "StatefulPartitionedCall/efficientnetv2-s/blocks_25/conv2d_1/Conv2D_bn_offset",
          "shape": [256],
          "dtype": "float32"
        },
        {
          "name": "StatefulPartitionedCall/efficientnetv2-s/blocks_26/conv2d/Conv2D_weights",
          "shape": [1, 1, 256, 1536],
          "dtype": "float32"
        },
        {
          "name": "StatefulPartitionedCall/efficientnetv2-s/blocks_26/conv2d/Conv2D_bn_offset",
          "shape": [1536],
          "dtype": "float32"
        },
        {
          "name": "StatefulPartitionedCall/efficientnetv2-s/blocks_26/depthwise_conv2d/depthwise_weights",
          "shape": [3, 3, 1536, 1],
          "dtype": "float32"
        },
        {
          "name": "StatefulPartitionedCall/efficientnetv2-s/blocks_26/depthwise_conv2d/depthwise_bn_offset",
          "shape": [1536],
          "dtype": "float32"
        },
        {
          "name": "StatefulPartitionedCall/efficientnetv2-s/blocks_38/depthwise_conv2d/depthwise_weights",
          "shape": [3, 3, 1536, 1],
          "dtype": "float32"
        },
        {
          "name": "StatefulPartitionedCall/efficientnetv2-s/blocks_26/conv2d_1/Conv2D_weights",
          "shape": [1, 1, 1536, 256],
          "dtype": "float32"
        },
        {
          "name": "StatefulPartitionedCall/efficientnetv2-s/blocks_26/conv2d_1/Conv2D_bn_offset",
          "shape": [256],
          "dtype": "float32"
        },
        {
          "name": "StatefulPartitionedCall/efficientnetv2-s/blocks_27/conv2d/Conv2D_weights",
          "shape": [1, 1, 256, 1536],
          "dtype": "float32"
        },
        {
          "name": "StatefulPartitionedCall/efficientnetv2-s/blocks_38/depthwise_conv2d/depthwise_bn_offset",
          "shape": [1536],
          "dtype": "float32"
        },
        {
          "name": "StatefulPartitionedCall/efficientnetv2-s/blocks_27/conv2d/Conv2D_bn_offset",
          "shape": [1536],
          "dtype": "float32"
        },
        {
          "name": "StatefulPartitionedCall/efficientnetv2-s/blocks_27/depthwise_conv2d/depthwise_weights",
          "shape": [3, 3, 1536, 1],
          "dtype": "float32"
        },
        {
          "name": "StatefulPartitionedCall/efficientnetv2-s/blocks_27/depthwise_conv2d/depthwise_bn_offset",
          "shape": [1536],
          "dtype": "float32"
        },
        {
          "name": "StatefulPartitionedCall/efficientnetv2-s/blocks_27/conv2d_1/Conv2D_weights",
          "shape": [1, 1, 1536, 256],
          "dtype": "float32"
        },
        {
          "name": "StatefulPartitionedCall/efficientnetv2-s/blocks_27/conv2d_1/Conv2D_bn_offset",
          "shape": [256],
          "dtype": "float32"
        },
        {
          "name": "StatefulPartitionedCall/efficientnetv2-s/blocks_28/conv2d/Conv2D_weights",
          "shape": [1, 1, 256, 1536],
          "dtype": "float32"
        },
        {
          "name": "StatefulPartitionedCall/efficientnetv2-s/blocks_28/conv2d/Conv2D_bn_offset",
          "shape": [1536],
          "dtype": "float32"
        },
        {
          "name": "StatefulPartitionedCall/efficientnetv2-s/blocks_28/depthwise_conv2d/depthwise_weights",
          "shape": [3, 3, 1536, 1],
          "dtype": "float32"
        },
        {
          "name": "StatefulPartitionedCall/efficientnetv2-s/blocks_28/depthwise_conv2d/depthwise_bn_offset",
          "shape": [1536],
          "dtype": "float32"
        },
        {
          "name": "StatefulPartitionedCall/efficientnetv2-s/blocks_28/conv2d_1/Conv2D_weights",
          "shape": [1, 1, 1536, 256],
          "dtype": "float32"
        },
        {
          "name": "StatefulPartitionedCall/efficientnetv2-s/blocks_28/conv2d_1/Conv2D_bn_offset",
          "shape": [256],
          "dtype": "float32"
        },
        {
          "name": "StatefulPartitionedCall/efficientnetv2-s/blocks_29/conv2d/Conv2D_weights",
          "shape": [1, 1, 256, 1536],
          "dtype": "float32"
        },
        {
          "name": "StatefulPartitionedCall/efficientnetv2-s/blocks_29/conv2d/Conv2D_bn_offset",
          "shape": [1536],
          "dtype": "float32"
        },
        {
          "name": "StatefulPartitionedCall/efficientnetv2-s/blocks_29/depthwise_conv2d/depthwise_weights",
          "shape": [3, 3, 1536, 1],
          "dtype": "float32"
        },
        {
          "name": "StatefulPartitionedCall/efficientnetv2-s/blocks_29/depthwise_conv2d/depthwise_bn_offset",
          "shape": [1536],
          "dtype": "float32"
        },
        {
          "name": "StatefulPartitionedCall/efficientnetv2-s/head/conv2d/Conv2D_bn_offset",
          "shape": [1280],
          "dtype": "float32"
        },
        {
          "name": "StatefulPartitionedCall/efficientnetv2-s/blocks_29/conv2d_1/Conv2D_weights",
          "shape": [1, 1, 1536, 256],
          "dtype": "float32"
        },
        {
          "name": "StatefulPartitionedCall/efficientnetv2-s/blocks_29/conv2d_1/Conv2D_bn_offset",
          "shape": [256],
          "dtype": "float32"
        },
        {
          "name": "StatefulPartitionedCall/efficientnetv2-s/blocks_30/conv2d/Conv2D_weights",
          "shape": [1, 1, 256, 1536],
          "dtype": "float32"
        },
        {
          "name": "StatefulPartitionedCall/efficientnetv2-s/blocks_30/conv2d/Conv2D_bn_offset",
          "shape": [1536],
          "dtype": "float32"
        },
        {
          "name": "StatefulPartitionedCall/efficientnetv2-s/blocks_30/depthwise_conv2d/depthwise_weights",
          "shape": [3, 3, 1536, 1],
          "dtype": "float32"
        },
        {
          "name": "StatefulPartitionedCall/efficientnetv2-s/blocks_30/depthwise_conv2d/depthwise_bn_offset",
          "shape": [1536],
          "dtype": "float32"
        },
        {
          "name": "StatefulPartitionedCall/efficientnetv2-s/blocks_38/conv2d_1/Conv2D_weights",
          "shape": [1, 1, 1536, 256],
          "dtype": "float32"
        },
        {
          "name": "StatefulPartitionedCall/efficientnetv2-s/blocks_30/conv2d_1/Conv2D_weights",
          "shape": [1, 1, 1536, 256],
          "dtype": "float32"
        },
        {
          "name": "StatefulPartitionedCall/efficientnetv2-s/blocks_38/conv2d_1/Conv2D_bn_offset",
          "shape": [256],
          "dtype": "float32"
        },
        {
          "name": "StatefulPartitionedCall/efficientnetv2-s/blocks_30/conv2d_1/Conv2D_bn_offset",
          "shape": [256],
          "dtype": "float32"
        },
        {
          "name": "StatefulPartitionedCall/efficientnetv2-s/blocks_31/conv2d/Conv2D_weights",
          "shape": [1, 1, 256, 1536],
          "dtype": "float32"
        },
        {
          "name": "StatefulPartitionedCall/efficientnetv2-s/blocks_31/conv2d/Conv2D_bn_offset",
          "shape": [1536],
          "dtype": "float32"
        },
        {
          "name": "StatefulPartitionedCall/efficientnetv2-s/blocks_31/depthwise_conv2d/depthwise_weights",
          "shape": [3, 3, 1536, 1],
          "dtype": "float32"
        },
        {
          "name": "StatefulPartitionedCall/efficientnetv2-s/blocks_31/depthwise_conv2d/depthwise_bn_offset",
          "shape": [1536],
          "dtype": "float32"
        },
        {
          "name": "StatefulPartitionedCall/efficientnetv2-s/blocks_39/conv2d/Conv2D_weights",
          "shape": [1, 1, 256, 1536],
          "dtype": "float32"
        },
        {
          "name": "StatefulPartitionedCall/efficientnetv2-s/blocks_31/conv2d_1/Conv2D_weights",
          "shape": [1, 1, 1536, 256],
          "dtype": "float32"
        },
        {
          "name": "StatefulPartitionedCall/efficientnetv2-s/blocks_31/conv2d_1/Conv2D_bn_offset",
          "shape": [256],
          "dtype": "float32"
        },
        {
          "name": "StatefulPartitionedCall/efficientnetv2-s/blocks_32/conv2d/Conv2D_weights",
          "shape": [1, 1, 256, 1536],
          "dtype": "float32"
        },
        {
          "name": "StatefulPartitionedCall/efficientnetv2-s/blocks_39/conv2d/Conv2D_bn_offset",
          "shape": [1536],
          "dtype": "float32"
        },
        {
          "name": "StatefulPartitionedCall/efficientnetv2-s/blocks_32/conv2d/Conv2D_bn_offset",
          "shape": [1536],
          "dtype": "float32"
        },
        {
          "name": "StatefulPartitionedCall/efficientnetv2-s/blocks_32/depthwise_conv2d/depthwise_weights",
          "shape": [3, 3, 1536, 1],
          "dtype": "float32"
        },
        {
          "name": "StatefulPartitionedCall/efficientnetv2-s/blocks_32/depthwise_conv2d/depthwise_bn_offset",
          "shape": [1536],
          "dtype": "float32"
        },
        {
          "name": "StatefulPartitionedCall/efficientnetv2-s/blocks_32/conv2d_1/Conv2D_weights",
          "shape": [1, 1, 1536, 256],
          "dtype": "float32"
        },
        {
          "name": "StatefulPartitionedCall/efficientnetv2-s/blocks_32/conv2d_1/Conv2D_bn_offset",
          "shape": [256],
          "dtype": "float32"
        },
        {
          "name": "StatefulPartitionedCall/efficientnetv2-s/blocks_33/conv2d/Conv2D_weights",
          "shape": [1, 1, 256, 1536],
          "dtype": "float32"
        },
        {
          "name": "StatefulPartitionedCall/efficientnetv2-s/blocks_39/depthwise_conv2d/depthwise_weights",
          "shape": [3, 3, 1536, 1],
          "dtype": "float32"
        },
        {
          "name": "StatefulPartitionedCall/efficientnetv2-s/blocks_33/conv2d/Conv2D_bn_offset",
          "shape": [1536],
          "dtype": "float32"
        },
        {
          "name": "StatefulPartitionedCall/efficientnetv2-s/blocks_33/depthwise_conv2d/depthwise_weights",
          "shape": [3, 3, 1536, 1],
          "dtype": "float32"
        },
        {
          "name": "StatefulPartitionedCall/efficientnetv2-s/blocks_33/depthwise_conv2d/depthwise_bn_offset",
          "shape": [1536],
          "dtype": "float32"
        },
        {
          "name": "StatefulPartitionedCall/efficientnetv2-s/blocks_39/depthwise_conv2d/depthwise_bn_offset",
          "shape": [1536],
          "dtype": "float32"
        },
        {
          "name": "StatefulPartitionedCall/efficientnetv2-s/blocks_33/conv2d_1/Conv2D_weights",
          "shape": [1, 1, 1536, 256],
          "dtype": "float32"
        },
        {
          "name": "StatefulPartitionedCall/efficientnetv2-s/blocks_33/conv2d_1/Conv2D_bn_offset",
          "shape": [256],
          "dtype": "float32"
        },
        {
          "name": "StatefulPartitionedCall/efficientnetv2-s/blocks_34/conv2d/Conv2D_weights",
          "shape": [1, 1, 256, 1536],
          "dtype": "float32"
        },
        {
          "name": "StatefulPartitionedCall/efficientnetv2-s/blocks_34/conv2d/Conv2D_bn_offset",
          "shape": [1536],
          "dtype": "float32"
        },
        {
          "name": "StatefulPartitionedCall/efficientnetv2-s/blocks_34/depthwise_conv2d/depthwise_weights",
          "shape": [3, 3, 1536, 1],
          "dtype": "float32"
        },
        {
          "name": "StatefulPartitionedCall/efficientnetv2-s/blocks_34/depthwise_conv2d/depthwise_bn_offset",
          "shape": [1536],
          "dtype": "float32"
        },
        {
          "name": "StatefulPartitionedCall/efficientnetv2-s/blocks_34/conv2d_1/Conv2D_weights",
          "shape": [1, 1, 1536, 256],
          "dtype": "float32"
        },
        {
          "name": "StatefulPartitionedCall/efficientnetv2-s/blocks_34/conv2d_1/Conv2D_bn_offset",
          "shape": [256],
          "dtype": "float32"
        }
      ]
    }
  ]
}
